modules/perception/lidar/lib/detection/lidar_point_pillars/test/data/pfe.onnx (onnx, 595651 bytes, 11 tensors)

8 f4 [64, 9]
0	0x3e7fbce6	0.24974403
1	0x3e542c5a	0.20720044
2	0x3e93483d	0.2876605
3	0xbe971c90	-0.2951398
4	0xbde092dc	-0.10965511
5	0xbe7b3fe3	-0.2453609
6	0xbbd51500	-0.0065027475
7	0x3da78c0c	0.08181009
8	0x3d312b58	0.043254226
9	0xbdee3410	-0.11631024
10	0xbe33db56	-0.17564139
11	0x3e0ab25a	0.13544598
12	0xbc95a230	-0.018265814
13	0x3e95dff5	0.29272428
14	0xbe346cdb	-0.1761965
15	0x3d96876c	0.073500484
16	0x3e77d9e2	0.2420421
17	0xbe4e26f6	-0.2013205
18	0x3e88b0bd	0.2669734
19	0x3e0990d8	0.1343416
20	0xbe994c33	-0.29940948
21	0xbe1e6cfe	-0.15471265
22	0xbe66201e	-0.22473189
23	0x3ea3fd0f	0.32029006
24	0xbe6a0a66	-0.22855529
25	0x3e2a5890	0.16635346
26	0x3e7e73e2	0.24848893
27	0xbe336c8b	-0.17521875
28	0xbe2d0bd0	-0.16899037
29	0xbe588c2b	-0.2114722
30	0xbde8de00	-0.11370468
31	0x3e531216	0.20612368
32	0xbe04a3b8	-0.12953079
33	0xbd610f68	-0.054946333
34	0xbe572fb0	-0.21014285
35	0x3b153c80	0.0022771657
36	0x3e3d704a	0.18499866
37	0xbea0baf7	-0.31392643
38	0xbcb1d5c0	-0.02170837
39	0x3ea20ba1	0.31649497
40	0x3e0554a0	0.13020563
41	0xbe838a7f	-0.25691602
42	0xbdd33ae6	-0.10313968
43	0xbe199606	-0.14998636
44	0x3e5ba77a	0.21450606
45	0xbc8690f0	-0.016426533
46	0x3e4c7426	0.19966182
47	0x3e963041	0.2933369
48	0x3da32d00	0.079675674
49	0x3c1aa220	0.009438068
50	0xbd9f0000	-0.07763672
51	0xbd3d7380	-0.046252728
52	0xbe934b7a	-0.28768522
53	0xbbeb5000	-0.0071811676
54	0x3e3d0402	0.1845856
55	0x3e9476b5	0.28996816
56	0xbdaf2370	-0.08551681
57	0xbd2f1388	-0.042743236
58	0xbe4be2d8	-0.19910753
59	0xbd99e234	-0.07513848
60	0xbe7c3920	-0.24631166
61	0xbe7c0f5e	-0.24615237
62	0x3e068f9e	0.13140723
63	0xbdccb850	-0.09996092
64	0xbe9766d8	-0.2957065
65	0xbe88f526	-0.26749533
66	0xbe8e81a4	-0.27833283
67	0x3e1f1082	0.15533641
68	0x3d195c40	0.037441492
69	0xbd1fd288	-0.039019138
70	0x3dfdeabc	0.12398288
71	0xbe05668b	-0.13027398
72	0xbe9df28a	-0.30849105
73	0xbe654ea6	-0.22393283
74	0x3cecaf70	0.028892249
75	0x3da8be04	0.082393676
76	0x3ea1b9d9	0.31587103
77	0x3da2271c	0.07917616
78	0xbe897d4e	-0.26853412
79	0x3d4fc828	0.050727993
80	0x3e052e4a	0.13005939
81	0x3ea2fc15	0.31832948
82	0xbdd54850	-0.10414183
83	0x3e831da3	0.2560855
84	0x3e246902	0.16055682
85	0x3e88cd4f	0.26719138
86	0xbe98e03a	-0.2985857
87	0x3ea24711	0.31694844
88	0x3de1722c	0.11008105
89	0xbd261ce0	-0.04055488
90	0x3e50390a	0.20334259
91	0x3e1c3e92	0.15258244
92	0xbdd0a41c	-0.101875514
93	0xbd852604	-0.065013915
94	0xbb4a3200	-0.0030852556
95	0x3e351032	0.1768196
96	0x3e80282d	0.25030652
97	0x3ea25289	0.31703594
98	0xbe28f2e0	-0.164989
99	0xbc9295d0	-0.017893702
100	0x3e862911	0.26203206
101	0x3e869fd5	0.26293817
102	0xbe118c2b	-0.14213626
103	0xbd2d5e38	-0.042326182
104	0x3d476ec0	0.048689604
105	0xbe955677	-0.2916753
106	0x3e374c3a	0.17900172
107	0x3e641b9e	0.2227616
108	0x3e8b2523	0.2717677
109	0x3e46765a	0.19381085
110	0x3da6cb20	0.08144212
111	0xbe62adbe	-0.2213659
112	0xbc5a6e20	-0.01333192
113	0x3e5855c2	0.21126464
114	0xbe3041e8	-0.17212641
115	0x3e20a98e	0.1568968
116	0xbddd59bc	-0.10808131
117	0x3e3473a6	0.17622241
118	0xbe382f88	-0.17986882
119	0xbe33a94b	-0.17545049
120	0xbc9d1500	-0.019175053
121	0x3e92f779	0.28704432
122	0x3ca836b0	0.02053389
123	0x3e7cccfa	0.24687567
124	0x3e1302b0	0.14356494
125	0x3e868fcd	0.26281586
126	0x3e9641a5	0.29346958
127	0x3e80dfeb	0.25170836
128	0x3dab69b4	0.08369771
129	0x3e9bbcbd	0.30417433
130	0x3e569a1a	0.20957223
131	0x3e2cb762	0.1686683
132	0x3e5df106	0.21673974
133	0x3da646dc	0.08118984
134	0xbe7db448	-0.24775803
135	0x3da9e760	0.082960844
136	0x3e9f086b	0.3106111
137	0xbe0a11ee	-0.13483402
138	0xbd611f28	-0.054961354
139	0xbe044e80	-0.1292057
140	0x3ea5a079	0.32348993
141	0xbbe41b40	-0.0069612563
142	0xbe3a2318	-0.1817745
143	0xbcda7990	-0.026669294
144	0x3e70da1e	0.23520705
145	0x3d63f008	0.055648834
146	0xbc66e4a0	-0.014092594
147	0xbb165080	-0.0022936165
148	0x3e81b439	0.2533281
149	0xbe0573cb	-0.13032453
150	0x3e12785a	0.14303723
151	0xbd1cca18	-0.03827867
152	0x3ea3d991	0.32001927
153	0xbe715eee	-0.23571369
154	0x3dacb894	0.08433643
155	0x3dd05260	0.10171962
156	0x3e9f7c1d	0.31149378
157	0xbdf66d16	-0.12032525
158	0x3e8ec6d9	0.27886084
159	0xbe1b025b	-0.15137617
160	0xbe011260	-0.12604666
161	0xbe33f7eb	-0.17575042
162	0xbe8e5cca	-0.27805167
163	0xbe9a9000	-0.30187988
164	0x3d8152cc	0.063146204
165	0xbe3d9ede	-0.18517634
166	0xbd21e8a8	-0.03952852
167	0xbde9c35c	-0.11414215
168	0x3d83e84c	0.064407915
169	0x3d79c138	0.060975283
170	0x3ddf38d4	0.10899511
171	0xbe964ab4	-0.2935387
172	0x3e917fb9	0.28417757
173	0x3e6befda	0.23040715
174	0xbe90ba10	-0.28266954
175	0xbd316c08	-0.043315917
176	0xbe9064fa	-0.2820204
177	0x3e505b12	0.2034724
178	0x3ca6ea50	0.0203754
179	0xbd264e20	-0.04060185
180	0xbe8c3d6a	-0.27390605
181	0xbdfdf7d6	-0.124007866
182	0xbe152a78	-0.14566982
183	0xbd5019d8	-0.050805897
184	0xbe4d06d6	-0.20022139
185	0xbe8000f6	-0.25000733
186	0xbe358d2e	-0.17729637
187	0xbe8a0e36	-0.26963967
188	0xbe05e53e	-0.1307573
189	0xbe42f9e0	-0.19040632
190	0xbdd1a616	-0.102367565
191	0xbdac328c	-0.084080786
192	0x3dd59e14	0.10430542
193	0xbe668456	-0.2251142
194	0xbd052bc0	-0.032512426
195	0x3d05d5f8	0.03267476
196	0x3db28fb4	0.087188154
197	0x3ddbf540	0.10740137
198	0x3dbb1a5c	0.09135887
199	0x3d53b388	0.051684886
200	0xbe94070a	-0.2891162
201	0xbe65eeb6	-0.22454342
202	0x3e8ed8c3	0.2789975
203	0xbe95d974	-0.29267466
204	0xbe44bd13	-0.19212751
205	0xbe33bc3e	-0.17552277
206	0x3e5fff22	0.21874669
207	0xbe97af30	-0.29625845
208	0x3e88fc9b	0.26755223
209	0x3e98ffcd	0.2988266
210	0xbe1b3596	-0.1515716
211	0x3e253638	0.16133964
212	0x3e9bbaa5	0.30415836
213	0x3e3f8032	0.18701246
214	0x3e4f2f02	0.20232776
215	0xbe7d03fe	-0.24708554
216	0xbd199c18	-0.03750238
217	0xbdd41520	-0.10355592
218	0x3e158362	0.146009
219	0x3e1c5dd8	0.15270174
220	0x3d900860	0.070328474
221	0x3c82a800	0.01594925
222	0xbe72deb3	-0.23717766
223	0xbca95280	-0.020669222
224	0xbc5b3de0	-0.013381451
225	0xbe226890	-0.158602
226	0xbdabd5d6	-0.08390395
227	0xbe49bda8	-0.19701254
228	0x3e8f5b8d	0.27999535
229	0x3e0c8bea	0.13725248
230	0xbe1c3970	-0.15256286
231	0xbe935c66	-0.28781432
232	0x3e8e4751	0.27788785
233	0xbe8ef556	-0.2792155
234	0xbbd74c40	-0.006570369
235	0xbd3be858	-0.045875877
236	0x3d43b4b8	0.04777977
237	0xbd008f88	-0.031386882
238	0xbe551bc6	-0.20811376
239	0xbe6bed96	-0.2303985
240	0x3ea8db07	0.32979605
241	0x3e5805a6	0.21095905
242	0x3e15f2e2	0.14643434
243	0xbe7c269e	-0.24624106
244	0x3db0e4a0	0.08637357
245	0xbe2c4b4e	-0.16825601
246	0xbdbf0e56	-0.09328906
247	0xbba51240	-0.005037576
248	0x3ea2878f	0.31744048
249	0xbdaff096	-0.0859081
250	0xbe8d99d0	-0.27656412
251	0xbe96945c	-0.29410064
252	0xbe6781c0	-0.2260809
253	0xbdd53a46	-0.104115054
254	0x3e7e1a4e	0.24814722
255	0xbe95e2b8	-0.29274535

9 f4 [64]
0	0x3f534a59	0.8253532
1	0x3f2ef5fb	0.68344086
2	0x3f71d127	0.94459766
3	0x3f1e6b25	0.6188224
4	0x3f53a281	0.82669836
5	0x3f5ca4cb	0.86188954
6	0x3f10b76b	0.56529874
7	0x3f5c593b	0.86073655
8	0x3f55a958	0.83461523
9	0x3f4c720c	0.7986152
10	0x3f588807	0.8458256
11	0x3f6228b9	0.8834339
12	0x3f513e02	0.8173524
13	0x3f508e5f	0.8146724
14	0x3f3be6d4	0.7339909
15	0x3f53b89f	0.82703584
16	0x3f5b89a6	0.8575691
17	0x3f6af9b5	0.9178727
18	0x3f40f1c5	0.7536891
19	0x3f244f17	0.6418318
20	0x3f46b26a	0.7761599
21	0x3f34cf22	0.7062856
22	0x3f53ac0b	0.8268439
23	0x3f696c65	0.9118102
24	0x3f5e9c63	0.8695738
25	0x3f500d93	0.8127071
26	0x3fa085cc	1.2540832
27	0x3f916b72	1.1360915
28	0x3f39724d	0.72440034
29	0x3f351d73	0.7074806
30	0x3f483f6c	0.78221774
31	0x3f5ab25b	0.854284
32	0x3f6c243e	0.922428
33	0x3f5c6b87	0.86101574
34	0x3f342165	0.70363456
35	0x3f55e9d4	0.8355992
36	0x3f3a94b1	0.72883135
37	0x3f89e6de	1.077358
38	0x3f5a97db	0.85387963
39	0x3f45e1de	0.7729777
40	0x3f19d5e9	0.60092026
41	0x3f581c53	0.8441822
42	0x3f723830	0.94616985
43	0x3f5e445a	0.86823046
44	0x3f2a3b14	0.66496396
45	0x3fa50f85	1.2895361
46	0x3f4f6ee2	0.8102857
47	0x3f40fa5b	0.7538201
48	0x3f4c3014	0.7976086
49	0x3f545aa9	0.82950836
50	0x3f3b9ff0	0.7329092
51	0x3f268341	0.6504403
52	0x3f4944dc	0.78620696
53	0x3f40f331	0.7537108
54	0x3f283b7b	0.6571576
55	0x3f2eb693	0.68247336
56	0x3f374210	0.7158518
57	0x3f47c074	0.78028035
58	0x3f5fd3d2	0.8743259
59	0x3f33a661	0.7017575
60	0x3f5b389d	0.8563326
61	0x3f4e5efc	0.80613685
62	0x3f5ccb41	0.8624764
63	0x3f5fdcb2	0.8744613

10 f4 [64]
0	0xbdc6d8d9	-0.09709329
1	0xbd8fd679	-0.07023329
2	0xbd66dcb0	-0.056362808
3	0xbd444c99	-0.04792461
4	0xbe5a8c9d	-0.21342702
5	0xbe439758	-0.19100702
6	0xbe6c727f	-0.23090552
7	0xbde8cbfa	-0.113670304
8	0xbdb42f78	-0.087981164
9	0x3c5d2a2f	0.013498827
10	0xbaccff5a	-0.0015640066
11	0x3d8c7a40	0.06859255
12	0x3d4ea892	0.05045373
13	0xbdbfe501	-0.09369851
14	0x3b650617	0.0034946257
15	0x3d3fee26	0.046857975
16	0x3d72d30d	0.059283305
17	0xbe039dad	-0.12853117
18	0xbd8a3880	-0.06749058
19	0xbe275e9c	-0.16344684
20	0xbdbe4d04	-0.09292033
21	0xbdcdb073	-0.10043421
22	0xbd80f1c2	-0.06296112
23	0x3d762de8	0.060102373
24	0x3d8c37f4	0.0684661
25	0x3d4a5c2f	0.04940432
26	0xbd102885	-0.035194892
27	0xbd44b1e7	-0.048021223
28	0xbd79a45d	-0.060947765
29	0xbb865551	-0.004099526
30	0xbd9ccf0d	-0.07656679
31	0x3cb8555b	0.022501638
32	0xbdcf0aba	-0.10109468
33	0xbd6de7a0	-0.058082223
34	0xbe3341b5	-0.17505534
35	0xbd61916f	-0.055070337
36	0xbe671036	-0.22564778
37	0xbb92b85a	-0.004477543
38	0xbc736e55	-0.014857848
39	0xbd4362c5	-0.047701616
40	0xbdce86af	-0.100842826
41	0x3ba7f110	0.0051251724
42	0xbdf38000	-0.118896484
43	0xbe3e6edc	-0.18596977
44	0xbe62f4c5	-0.22163685
45	0xbc8010a8	-0.015632942
46	0xbdbff2d4	-0.09372488
47	0x3dfda303	0.12384608
48	0xbda9733b	-0.082739316
49	0xbe3514d2	-0.17683724
50	0xbcf76c25	-0.030202935
51	0xbc7da47f	-0.015481113
52	0xbd500156	-0.050782524
53	0xbdb6744a	-0.08908899
54	0xbe906a92	-0.28206307
55	0xbd9e745d	-0.07737038
56	0x3ca0ce0f	0.019629506
57	0xbe25290b	-0.16128938
58	0x3d824d6e	0.06362425
59	0x3cf7f66a	0.030268867
60	0x3d779c74	0.06045194
61	0xbe3c8e4d	-0.18413658
62	0x3d83ceb9	0.064359136
63	0x3d8162c5	0.06317667

11 f4 [64]
0	0xbdc611d4	-0.09671369
1	0xbd150876	-0.036385022
2	0xbbba7c58	-0.0056910925
3	0xbdd0199d	-0.10161135
4	0x3e013df1	0.12621285
5	0x3e183084	0.14862257
6	0x3dc042d2	0.09387745
7	0xbc243a9b	-0.010023738
8	0xbd2c6a01	-0.04209328
9	0xbc9572ac	-0.018243156
10	0x3de0e260	0.109806776
11	0xbd989faa	-0.074523285
12	0xbdd435f9	-0.10361857
13	0xbe21caa5	-0.15799959
14	0x3d2e839d	0.042605985
15	0xbd9901da	-0.07471056
16	0xbd8e58a0	-0.069504976
17	0x3dce5bf4	0.100761324
18	0x3dcadacb	0.09905013
19	0x3d43535b	0.047686916
20	0xbdae9f78	-0.0852651
21	0x3bbb73ac	0.0057205763
22	0x3d30436b	0.043033045
23	0x3caa5a7f	0.020795105
24	0xbd5a793e	-0.05333828
25	0xbdf37cf7	-0.118890695
26	0x3bd87a60	0.006606385
27	0x3c544643	0.012956205
28	0xbd6b4fab	-0.057449024
29	0xbdd2197e	-0.102587685
30	0xbda44882	-0.08021642
31	0xbc9bc48e	-0.019014623
32	0x3c2aac7e	0.010417102
33	0xbce0c64f	-0.02743831
34	0x3e080d9d	0.13286443
35	0xbc371859	-0.0111752385
36	0x3e249a6e	0.16074535
37	0xbba57a7a	-0.0050500007
38	0x3b861a91	0.0040925224
39	0xbd50037b	-0.05078457
40	0xbc61b0f5	-0.0137751
41	0x3d883650	0.06650984
42	0x3d83ebf5	0.064414896
43	0x3def91ae	0.11697708
44	0x3d87c872	0.06630029
45	0xbc0f2736	-0.008737376
46	0xbe0a6b4a	-0.1351749
47	0x3c528855	0.012849887
48	0xbd3ba814	-0.04581459
49	0x3e353946	0.1769763
50	0x3cdbac91	0.026815685
51	0xbdd356e3	-0.10319307
52	0xbb044580	-0.0020183027
53	0xbda338b4	-0.079698
54	0x3dffa4ab	0.1248258
55	0xbde49754	-0.11161676
56	0xbd731d7d	-0.059354294
57	0x3de483aa	0.111579254
58	0xbd95c96f	-0.07313811
59	0xbdf297d8	-0.11845368
60	0xbd57b9e0	-0.0526675
61	0x3dd81c7d	0.10552309
62	0xbd38aeeb	-0.04508869
63	0xbd27dac3	-0.04098011

12 f4 [64]
0	0x3ee75788	0.4518397
1	0x3e7339c6	0.23752508
2	0x3c01fe91	0.0079342285
3	0x3f06f446	0.5271648
4	0x3f26159b	0.6487672
5	0x3f68645e	0.9077815
6	0x3f09a712	0.53770554
7	0x3baf1489	0.005343024
8	0x3ddf6867	0.10908585
9	0x3c76bbc8	0.015059419
10	0x3f3a3b8f	0.7274713
11	0x3e613128	0.21991408
12	0x3ef3d78b	0.47625384
13	0x3fa31363	1.2740291
14	0x3e884573	0.26615486
15	0x3e8618e4	0.26190865
16	0x3e76e8d6	0.24112257
17	0x3ec7910b	0.38977847
18	0x3ef473d6	0.47744626
19	0x3eae4f11	0.34044698
20	0x3ea932ba	0.33046514
21	0x3e47be20	0.1950612
22	0x3e02c700	0.12771225
23	0x3d56b74d	0.052420903
24	0x3df3ac0f	0.11898052
25	0x3f226388	0.6343312
26	0x3b41999c	0.0029541021
27	0x3bbd8857	0.0057840752
28	0x3e95904f	0.2921166
29	0x3f1c24b7	0.6099352
30	0x3ece4c82	0.40292746
31	0x3c98cedc	0.018653326
32	0x3b5fb89c	0.0034137135
33	0x3d5487a2	0.051887162
34	0x3f4eb67e	0.8074721
35	0x3c98d652	0.018656883
36	0x3f98208f	1.1884936
37	0x3bd391c9	0.006456588
38	0x3e1a74c3	0.15083604
39	0x3e063771	0.13107087
40	0x3d1a9146	0.0377362
41	0x3ea74b1c	0.3267449
42	0x3e1a1ef7	0.15050875
43	0x3f105dad	0.5639294
44	0x3eb4ae55	0.35289255
45	0x3b992f3c	0.00467482
46	0x3f661be0	0.89886284
47	0x3e0b140e	0.13581869
48	0x3e6bb938	0.23019874
49	0x3fab6332	1.3389647
50	0x3e9dbb8f	0.30807158
51	0x3ef40d54	0.4766642
52	0x3e8b438a	0.27199966
53	0x3ec5fec0	0.3867092
54	0x3f3cadd4	0.7370274
55	0x3f1f99eb	0.62344235
56	0x3e169fe2	0.14709428
57	0x3f0cc5e8	0.5498948
58	0x3e61cd13	0.22050886
59	0x3f30b2a3	0.6902258
60	0x3debff45	0.11523298
61	0x3f0c57ef	0.54821676
62	0x3dc1e869	0.09468157
63	0x3dce0925	0.10060338

14 f4 [64, 9, 1, 1]
0	0xbe49a4ca	-0.19691768
1	0xbe0ce348	-0.13758576
2	0x3e5cb5fc	0.21553797
3	0xbd038975	-0.03211351
4	0x3b0df99a	0.0021663667
5	0xb92845c6	-0.00016047721
6	0xbbff6ea9	-0.007795174
7	0x3b41e335	0.0029584889
8	0x3ad506fd	0.0016252693
9	0xbda9bcfb	-0.08287998
10	0xbe759410	-0.23982263
11	0x3db180f6	0.086671755
12	0x3d2f16df	0.04274642
13	0x3bb76f45	0.005597981
14	0x3bdff598	0.006834697
15	0x3b929e80	0.004474461
16	0x3bf03c1c	0.0073313843
17	0x3ba680d7	0.005081277
18	0x3b8d51ea	0.0043127434
19	0xbca18e70	-0.01972124
20	0x3ea1223e	0.31471437
21	0xbdf4675d	-0.119337775
22	0xbc97bd84	-0.018522985
23	0x3d6efa28	0.058344036
24	0x3f12bba7	0.57317585
25	0xbd7914ef	-0.06081098
26	0x3db88047	0.09008842
27	0xbe70aab1	-0.23502614
28	0xbe03c0e7	-0.12866555
29	0xbe2a4836	-0.16629109
30	0x3cb037dd	0.021511013
31	0x3af97be9	0.001903412
32	0x3a6bb72f	0.0008991835
33	0x3a625827	0.00086343515
34	0x3b97fdd8	0.004638415
35	0xbaa927b8	-0.0012905514
36	0x3e7e15ab	0.24812953
37	0x3c961a0a	0.018322963
38	0xbe61f8bb	-0.2206754
39	0x3daea33c	0.08527228
40	0xba3f2181	-0.0007291064
41	0x3b365378	0.0027820747
42	0x3d6b2da0	0.05741656
43	0x3bb822a3	0.0056193634
44	0x3b598f34	0.0033196928
45	0x3e9723fe	0.29519647
46	0x3d186d28	0.037213475
47	0xbe80ff1d	-0.25194636
48	0x3d74853a	0.059697367
49	0xb8d60dec	-0.00010206908
50	0x3b73b470	0.0037186407
51	0x3d9b34f5	0.0757846
52	0x3ba8b827	0.005148906
53	0x3b40e96c	0.0029436005
54	0x3e3d388f	0.18478607
55	0xbe70fccb	-0.23533933
56	0xbcf328ad	-0.029682482
57	0xbcda031d	-0.026612813
58	0x3a240d54	0.00062580896
59	0x3b0a63f4	0.0021116706
60	0x3c22c2a4	0.009934101
61	0x3af76277	0.0018873949
62	0x3bcc3fd3	0.0062331944
63	0xbc95b093	-0.018272674
64	0xbb6b99b9	-0.003594978
65	0x3d02da31	0.031946365
66	0xbea36ee2	-0.31920534
67	0xb9cb41cc	-0.000387682
68	0xba90034a	-0.0010987308
69	0xbcaa7243	-0.020806437
70	0x3af2a872	0.0018513335
71	0xbb276317	-0.002554124
72	0xbdcd3bda	-0.100211814
73	0x3da3d5ec	0.07999787
74	0xbe396a6f	-0.18107007
75	0xbd3ac201	-0.045595173
76	0xbb686af9	-0.0035464151
77	0xbb58ad30	-0.0033062212
78	0x3cedf246	0.029046189
79	0x3b29fca3	0.0025937937
80	0x3bc4a511	0.0060011228
81	0xbc9e110c	-0.019295238
82	0x3cce179d	0.025157744
83	0x3e9504ef	0.29105327
84	0x3e53511b	0.20636408
85	0xbab38b56	-0.0013698142
86	0xbc014028	-0.007888831
87	0x3d418e6d	0.04725497
88	0x3c2fcfca	0.010730693
89	0xbc012427	-0.007882155
90	0x3e88cb18	0.26717448
91	0x3e5daf0b	0.21648805
92	0x3e9dad05	0.30796066
93	0xbc5af07c	-0.013363
94	0x3bef60fc	0.0073052626
95	0x3ba5d371	0.005060606
96	0xbd0fbc0f	-0.035091456
97	0x3b0a72f7	0.0021125653
98	0xbadf3c38	-0.0017031496
99	0xbe143e3d	-0.14476867
100	0xbc995918	-0.018719241
101	0x3e122973	0.14273624
102	0x3ad48152	0.0016212857
103	0x395c4376	0.00021005966
104	0x3a2cd6fb	0.0006593314
105	0x3c5e4953	0.013567287
106	0x3a85eb60	0.0010217242
107	0xba07fe14	-0.0005187702
108	0xbe580ba3	-0.21098189
109	0x3d892f7e	0.066985115
110	0x3e0a919c	0.13532108
111	0x3c5c511e	0.013447074
112	0xbb14eff7	-0.0022726038
113	0xbac28155	-0.0014839569
114	0x3bbec6f6	0.005822058
115	0xbb1b44bb	-0.002369209
116	0xba88c8dd	-0.0010435838
117	0xbeb3f3e7	-0.3514702
118	0xbe743615	-0.23848756
119	0xbdc590a7	-0.09646731
120	0xbd2d0ebe	-0.042250387
121	0x3b3cd405	0.0028812897
122	0xbb1840a3	-0.0023231886
123	0x3ab929f0	0.0014126878
124	0x3b901da2	0.0043980638
125	0x39fbd412	0.00048032455
126	0x3dd571c6	0.10422091
127	0xbe6fcf53	-0.23418932
128	0x3ea7f518	0.3280418
129	0x3b6b16a3	0.0035871647
130	0x3bbe6e9c	0.0058115255
131	0x3c039175	0.008030285
132	0x3bc3f48e	0.005980081
133	0x3bc1a6b8	0.005909767
134	0x3c51ef89	0.012813457
135	0xbe326ce1	-0.17424347
136	0xbd24b0d9	-0.040207718
137	0xbe44f075	-0.19232352
138	0x3cfec9c4	0.031102069
139	0xbaab5c77	-0.0013073821
140	0xba323771	-0.00067984225
141	0xbbc1fad4	-0.0059197936
142	0xba7eda6b	-0.0009721878
143	0xbacdedc3	-0.0015711117
144	0xbe2ade3e	-0.16686341
145	0x3ca53d35	0.020170787
146	0xbe67fd47	-0.22655211
147	0xbccd06a9	-0.02502759
148	0x3a845240	0.0010095313
149	0x39ca5b8d	0.00038596653
150	0xbc2b7e2e	-0.010467095
151	0x3a47cd75	0.0007621863
152	0xbb05594f	-0.0020347422
153	0x3e36e9d9	0.17862643
154	0x3d1424bb	0.03616784
155	0xbee3868f	-0.44438598
156	0xbcc02a05	-0.023457536
157	0xbb743d59	-0.0037268011
158	0x3b90ce38	0.0044191144
159	0x3debd4d4	0.11515203
160	0x3b90fda4	0.0044247676
161	0xb97e2ad5	-0.00024239284
162	0x3e727c6f	0.2368028
163	0x3d2f6efa	0.042830445
164	0x3e9b6d2c	0.3035673
165	0xbd35d87c	-0.04439591
166	0x3bd0410a	0.0063554095
167	0x3c06ef9c	0.008235838
168	0x3d122a54	0.0356849
169	0x39601e36	0.00021373559
170	0xba017595	-0.00049384806
171	0x3da0b9f3	0.07847967
172	0xbe92e2f9	-0.2868879
173	0xbdca47b5	-0.09876958
174	0xbc9a5262	-0.018838111
175	0x3b15cfe6	0.0022859513
176	0xbaa82846	-0.0012829385
177	0x3bc3248c	0.0059552845
178	0x3a85eb2b	0.001021718
179	0x3a140f9e	0.0005648079
180	0xbe28dfb3	-0.16491584
181	0xbdf1aaf8	-0.11800188
182	0x3e752800	0.2394104
183	0xbdba74f3	-0.091043375
184	0x3a995fb7	0.0011701499
185	0x37612a3e	1.342088e-05
186	0xbba071bd	-0.004896371
187	0x3aaad270	0.0013032686
188	0x3b3fec93	0.0029285296
189	0xbc224839	-0.009904915
190	0xbe7e37ae	-0.24825928
191	0xbe06d537	-0.13167273
192	0xbd107636	-0.035268985
193	0x3b47d69a	0.0030492903
194	0x3b2638ba	0.0025363402
195	0x3bf3ad80	0.0074364543
196	0x3ba6e8f4	0.005093688
197	0x3bb5e0ae	0.0055504655
198	0x3dd8e50e	0.10590564
199	0xbdd1e5f1	-0.10248936
200	0x3e6c000b	0.23046891
201	0xbd5eda23	-0.05440725
202	0x3b53def2	0.003232893
203	0x3c0cd257	0.008595071
204	0xbadeb144	-0.0016990085
205	0x3bf3b803	0.0074377074
206	0x3c9816dd	0.01856559
207	0x3db9ccea	0.090722874
208	0x3cc9cbdd	0.024633342
209	0x3ed63e5b	0.41844448
210	0xbf10caed	-0.5655964
211	0x3b9f9c0f	0.0048708986
212	0x3ba10704	0.0049141664
213	0x3d4365e7	0.047704604
214	0xbbed2a6d	-0.0072377236
215	0x3cc1ea06	0.023671161
216	0xbdd75be4	-0.105155736
217	0x3b383bd7	0.002811184
218	0x3e01f62a	0.1269156
219	0x3cc99a6f	0.024609772
220	0xb7f9a617	-2.9760455e-05
221	0x3917543c	0.00014431862
222	0x3c129365	0.008946274
223	0x38973c7e	7.211509e-05
224	0xba94ff34	-0.001136756
225	0xbe807cf3	-0.2509533
226	0xbd9f776d	-0.077864505
227	0x3dde2824	0.108475
228	0x3c86d14c	0.016457222
229	0xb86b2a9a	-5.6068042e-05
230	0xba4ca590	-0.0007806653
231	0x3b3acde9	0.002850408
232	0x39d891fc	0.00041307497
233	0xba96363a	-0.0011460253
234	0x3a8bf725	0.0010678513
235	0xb8e12e74	-0.000107374886
236	0xbadf5709	-0.0017039488
237	0x3f7c3434	0.98517156
238	0x3c624a7c	0.013811704
239	0x3cb1a8f3	0.021687007
240	0x3d3863fd	0.04501723
241	0x3aef0df4	0.0018238411
242	0x3bdfdc67	0.006831694
243	0xba642632	-0.00087032013
244	0xb9fd9bee	-0.00048372097
245	0xbeb56c08	-0.35433984
246	0xbe72c303	-0.23707204
247	0xbd65561b	-0.05599032
248	0xbd8a0f9a	-0.06741257
249	0x3f05188c	0.5199058
250	0x3deebabb	0.1165671
251	0x3d345932	0.044030376
252	0xbdf75288	-0.120762885
253	0x3e5e026f	0.21680616
254	0xbdcda02e	-0.100403175
255	0x3d5c7aa5	0.0538279

15 f4 [64]
0	0x3adf0d35	0.0017017486
1	0x3a2f3794	0.0006684002
2	0x3b91f5c1	0.004454345
3	0xb99cf8b7	-0.00029939946
4	0x3898419b	7.260145e-05
5	0xb9cbb908	-0.00038857036
6	0xb97b46e7	-0.00023963639
7	0x3b310783	0.0027012534
8	0x3a96803c	0.0011482309
9	0x3b4cb829	0.0031237698
10	0xba559f38	-0.00081490306
11	0xba7925a3	-0.00095042045
12	0x3b1d3e33	0.0023993372
13	0x38866c61	6.409805e-05
14	0xb71d36ab	-9.370658e-06
15	0x3a75e656	0.0009380331
16	0x3b079e74	0.002069381
17	0xb96d798f	-0.00022647365
18	0x3897ec24	7.244226e-05
19	0xb89acea9	-7.381786e-05
20	0xba2d81cb	-0.0006618767
21	0xb8a1a892	-7.708477e-05
22	0xba4e26ba	-0.0007864047
23	0xba331651	-0.00068316335
24	0x3a08fa57	0.0005225292
25	0x3a901178	0.0010991534
26	0xbb83bb79	-0.004020151
27	0xba100407	-0.0005493764
28	0xb8b047cb	-8.4057065e-05
29	0xba1c6f5f	-0.00059675233
30	0xba758b11	-0.0009366731
31	0x3a915345	0.0011087438
32	0x3aa3ce75	0.0012497442
33	0xbb364b3e	-0.0027815844
34	0x39d228b3	0.00040084645
35	0x3b1a41f7	0.0023537853
36	0xb8eeeb71	-0.00011392579
37	0xba372c02	-0.00069874537
38	0xba2d1532	-0.00066025846
39	0x3a93c75c	0.0011274624
40	0xba1200fb	-0.0005569604
41	0xb9026cef	-0.00012438347
42	0x3a0f87ca	0.0005475251
43	0xb9183a6e	-0.00014517616
44	0xb9d7b732	-0.00041144487
45	0xbb0cfb8f	-0.0021512245
46	0x3ab0043f	0.0013429
47	0xbb02a203	-0.0019932992
48	0xb9a8fbf7	-0.00032231185
49	0x394acf11	0.0001934136
50	0xba16bb60	-0.0005749967
51	0x39ef38ed	0.00045628045
52	0x398034a0	0.0002445327
53	0x3a996245	0.001170226
54	0xb8dbe366	-0.0001048509
55	0x3ad8c9be	0.0016539616
56	0xb9926696	-0.00027923723
57	0x3a143372	0.0005653418
58	0x3a2a2882	0.00064910215
59	0x3a14e426	0.0005679749
60	0xbad4c659	-0.0016233429
61	0x380ec7a9	3.4041386e-05
62	0xbaad62fd	-0.0013228353
63	0x3b4de06d	0.0031414286

16 f4 [1, 100, 1, 1]
0	0xbd215513	-0.039387774
1	0x3c2dfad8	0.010618888
2	0xbd45bf80	-0.04827833
3	0x3dae0a39	0.084980436
4	0x3d8151d9	0.06314439
5	0xbd6649dd	-0.056222785
6	0xbc590410	-0.0132455975
7	0xbd68dd7d	-0.056851853
8	0xbdc36f28	-0.09542686
9	0xbcdf8ad8	-0.027287886
10	0x3ce2bc04	0.027677543
11	0x3c8a0278	0.01684688
12	0x3d6bcbb2	0.057567306
13	0x3d23b42e	0.039966755
14	0xbd250bc3	-0.04029442
15	0x3cb9e674	0.022692896
16	0xbc222930	-0.009897515
17	0x3b91ed30	0.004453324
18	0xbd9f2273	-0.077702425
19	0xbbcbfe30	-0.00622537
20	0x3c917788	0.017757192
21	0x3db06ff7	0.086151056
22	0x3c320818	0.0108661875
23	0x3c100f70	0.008792743
24	0x3d7aab1e	0.061198346
25	0xbda1dacd	-0.07903061
26	0xbcb21b6c	-0.021741591
27	0xbdbba1fb	-0.09161755
28	0x3d4da586	0.050206684
29	0xbd9f973e	-0.07792519
30	0xbd7e87ca	-0.062141217
31	0xbc4bb0f0	-0.012432322
32	0x3b9a9530	0.0047174916
33	0xbd11261c	-0.035436735
34	0x3d0de472	0.03464169
35	0x3c1e56f0	0.009664282
36	0xbd1c3893	-0.03813989
37	0x3d1f3722	0.038870938
38	0xbd128384	-0.035769954
39	0xbd85732c	-0.06516108
40	0xbdc93e48	-0.09826332
41	0xbc2edc98	-0.010672711
42	0x3d5863ba	0.05282948
43	0x3d17ff06	0.037108444
44	0xbdbeb012	-0.093109265
45	0x3c53af28	0.0129201785
46	0xbd495fb0	-0.04916352
47	0x3d17992a	0.037011303
48	0xbcb2c6d4	-0.021823324
49	0xbc0afd98	-0.008483313
50	0x3d6037f2	0.054740854
51	0x3d356392	0.04428441
52	0x3d764012	0.060119696
53	0xbd46892d	-0.048470665
54	0xbd1f9e3d	-0.038969267
55	0xbae57540	-0.0017506257
56	0xbd949c63	-0.07256391
57	0xbd141fea	-0.036163248
58	0x3b89e800	0.0042085648
59	0xbdc0e975	-0.094195284
60	0xbdb443a7	-0.08801966
61	0x3dc0c6ed	0.09412942
62	0xbc34db00	-0.011038542
63	0x3d29deb6	0.04147216
64	0x3d3f3666	0.046682738
65	0xbda97522	-0.082742944
66	0xbdca5cfd	-0.09881017
67	0x3b74cd60	0.0037353858
68	0x3dc80e6f	0.09768378
69	0xbbff4a20	-0.007790819
70	0xbcbc37f8	-0.022975907
71	0x3da021e9	0.07818968
72	0xbb878160	-0.0041352957
73	0xbd94a2a8	-0.07257587
74	0xbc8e51b4	-0.017372943
75	0x3d2b65e2	0.04184521
76	0xbdb3ea7f	-0.08784961
77	0x3cc50ce0	0.02405399
78	0xbcf4de54	-0.02989117
79	0x3d098196	0.03357085
80	0x3cb14600	0.021639824
81	0x3c03e518	0.008050226
82	0x3dae6a21	0.08516336
83	0xbd89969d	-0.0671818
84	0x3dace825	0.084427156
85	0x3db3ead5	0.08785025
86	0xbda08e0a	-0.07839592
87	0xbda328e2	-0.07966782
88	0x3dbf8903	0.09352305
89	0x3d47700e	0.048690848
90	0xbdb8b97b	-0.090197526
91	0x3d6a21ae	0.057161026
92	0x3db53543	0.088480495
93	0x3dc71337	0.09720462
94	0xbd97818a	-0.073977545
95	0x3da3a493	0.079903744
96	0xbdc539c5	-0.09630159
97	0xbd773ee3	-0.060362708
98	0xbcea2a88	-0.028584734
99	0xbd0f0cea	-0.034924425

18 f4 [100, 1, 1, 8]
0	0x3ead5f3d	0.33861724
1	0x3e63fed2	0.22265175
2	0x3e0703a4	0.13184983
3	0xbea4fa95	-0.3222243
4	0xbd4a1858	-0.049339622
5	0xbdb61de0	-0.08892417
6	0x3e54f7ca	0.20797649
7	0x3d36a858	0.04459414
8	0x3e85279d	0.26006785
9	0x3e8aa0b7	0.2707574
10	0xbd021c18	-0.031765074
11	0x3e4f189a	0.20224229
12	0x3dfd07ac	0.12354979
13	0x3e81b599	0.2533386
14	0xbeb3eeee	-0.35143226
15	0xbd50bb88	-0.050960094
16	0x3e9e3221	0.3089762
17	0x3e920b71	0.28524354
18	0xbeae8a41	-0.34089854
19	0x3e77bf12	0.24193981
20	0xbe6efad0	-0.23337865
21	0xbaecd900	-0.0018070042
22	0xbe98acea	-0.29819423
23	0xbde1f5b6	-0.11033194
24	0xbea06b52	-0.3133188
25	0x3e312aea	0.17301527
26	0x3b8d7240	0.004316598
27	0xbc5eb8e0	-0.013593882
28	0x3e2638a2	0.16232541
29	0x3e66770e	0.22506353
30	0x3e912485	0.28348175
31	0x3e4d22ce	0.20032808
32	0xbd374b20	-0.04474938
33	0xbe5d75c4	-0.21626955
34	0xbea3975f	-0.31951424
35	0x3e173252	0.1476529
36	0x3e79695e	0.243566
37	0x3e6c9646	0.231042
38	0x3e8919c7	0.2677748
39	0x3e293f46	0.16528043
40	0x3ea2e36b	0.3181413
41	0xbca57d50	-0.020201355
42	0x3dbf27f8	0.09333795
43	0xbea61cfd	-0.3244399
44	0x3d59fc40	0.05321908
45	0x3e0e5cb6	0.13902554
46	0x3e7c3f06	0.24633417
47	0xbe951148	-0.29114747
48	0x3e882a43	0.26594743
49	0x3e6443ba	0.2229146
50	0xbe8fa2f2	-0.28054005
51	0x3eae59ef	0.3405299
52	0xbe8110c3	-0.252081
53	0x3e9cb74d	0.30608597
54	0xbe53b1ae	-0.20673248
55	0x3d2b8ab0	0.04188031
56	0x3e836a53	0.25667056
57	0x3d8bd438	0.06827587
58	0x3e45072a	0.19241014
59	0xbe96733c	-0.29384792
60	0xbddcfc68	-0.1079033
61	0xbdd36c24	-0.103233606
62	0x3e2efb16	0.17087969
63	0xbe297c2c	-0.16551274
64	0x3e0b762a	0.13619295
65	0x3e0a6e7e	0.13518712
66	0xbe28d622	-0.16487935
67	0x3dbf3c78	0.093377054
68	0xbd92f134	-0.07174912
69	0x3ea0f6ed	0.3143839
70	0xbdb99b78	-0.090628564
71	0x3ea9709b	0.33093724
72	0xbd61aee0	-0.055098414
73	0xbe851144	-0.25989735
74	0x3e59653e	0.21230027
75	0xbea3d093	-0.31995067
76	0xbe24dbe1	-0.16099502
77	0x3eb1b60f	0.34709212
78	0x3e5ff682	0.21871379
79	0x3df5b4d0	0.11997378
80	0x3e8a3b1b	0.2699822
81	0xbd88e0c4	-0.06683496
82	0xbdc91a8c	-0.098195165
83	0xbe6bf575	-0.23042853
84	0x3dd366a4	0.103223115
85	0x3e86d911	0.26337484
86	0x3eae618f	0.34058806
87	0x3d0ea7b8	0.034827918
88	0xbeaea6fc	-0.34111774
89	0x3d4dbc20	0.050228238
90	0xbddb3f88	-0.10705477
91	0x3eb46c27	0.35238764
92	0x3c697be0	0.0142507255
93	0xbe2693ff	-0.16267394
94	0xbe8f7b32	-0.28023678
95	0x3e953fd3	0.29150257
96	0x3b670800	0.003525257
97	0x3d58d1a0	0.05293429
98	0xbe354b6e	-0.17704555
99	0x3eb397d1	0.35076764
100	0xbe8b98f4	-0.2726513
101	0x3e940d9b	0.2891663
102	0xbe059990	-0.1304686
103	0xbe763884	-0.24044997
104	0xbb4b3980	-0.0031009614
105	0xbe953468	-0.29141545
106	0x3eb3f8ad	0.35150662
107	0xbe0486fc	-0.12942117
108	0x3e89d4d7	0.26920196
109	0xbd262278	-0.040560216
110	0xbbe35540	-0.006937653
111	0xbe1333ff	-0.14375304
112	0xbe839127	-0.2569668
113	0x3e0b76f6	0.13619599
114	0x3d75dc10	0.06002432
115	0xbc501a80	-0.012701631
116	0x3d4ada10	0.049524367
117	0x3ea43e29	0.32078674
118	0x3e0a9646	0.13533887
119	0x3bf2d500	0.0074106455
120	0x3e6ef1be	0.23334405
121	0x3d73b408	0.059497863
122	0x3e7694da	0.2408022
123	0xbe4d4fe3	-0.20050006
124	0xbe82e9de	-0.25569052
125	0x3e7f81ce	0.2495186
126	0xbe6e2db8	-0.23259628
127	0x3df72960	0.120684385
128	0x3dca26b8	0.09870666
129	0xbdc168ac	-0.09443793
130	0x3df54dac	0.11977705
131	0xbc87f920	-0.016598284
132	0x3e9bd4af	0.30435702
133	0x3ea945c5	0.33061042
134	0x3e1811ca	0.14850536
135	0xbd7d8608	-0.0618954
136	0x3ea27767	0.31731722
137	0xbea1c7b5	-0.31597677
138	0xbe8b783f	-0.27240178
139	0xbe63a979	-0.22232617
140	0x3eaacb9d	0.3335847
141	0x3d0b2ea0	0.033980012
142	0xbe99b125	-0.30017963
143	0x3e0494f6	0.12947449
144	0x3e0003c4	0.12501436
145	0x3e081a90	0.13291383
146	0xbe9cdd5a	-0.30637628
147	0xbeb42870	-0.351871
148	0x3e0ef0e8	0.13959086
149	0xbe7c947e	-0.2466602
150	0xbd8df928	-0.069322884
151	0xbe9c70b2	-0.3055473
152	0xbda1cd8c	-0.07900533
153	0x3ea8fd0d	0.33005562
154	0x3e3d6f96	0.18499598
155	0xbd1dbb58	-0.038508743
156	0x3e29511e	0.1653485
157	0x3e1d1e3e	0.15343568
158	0xbcc64c80	-0.0242064
159	0xbd1d3ca0	-0.038387895
160	0xbd3c2788	-0.045936137
161	0x3d789000	0.060684204
162	0xbd35c2f0	-0.04437536
163	0xbc2ebe60	-0.010665506
164	0xbe02b96e	-0.12766048
165	0xbe81c573	-0.25345954
166	0xbd0bb970	-0.034112394
167	0x3d5baca8	0.053631455
168	0xbe7f59a0	-0.24936533
169	0x3cb520f0	0.022110432
170	0xbd64e978	-0.055886716
171	0x3dd1500c	0.10220346
172	0xbcb0ef90	-0.021598607
173	0xbe0bda3e	-0.13657472
174	0x3e5265e2	0.20546678
175	0x3e99da7d	0.30049506
176	0x3d0565d8	0.03256783
177	0x3e8159a9	0.25263718
178	0xbe1e14df	-0.15437649
179	0x3e1d4fee	0.15362522
180	0xbe54e907	-0.20792018
181	0xbe0bfa4e	-0.13669702
182	0x3d741cd0	0.05959779
183	0x3e57440a	0.21022049
184	0xbe1e53b7	-0.15461622
185	0x3ea16dad	0.31528988
186	0xbe90e61d	-0.28300563
187	0x3d215af0	0.039393365
188	0xbead58fe	-0.33856958
189	0x3ea2b407	0.31777975
190	0xbe2f71e6	-0.17133293
191	0xbddb5830	-0.1071018
192	0x3d2f3ca0	0.042782426
193	0x3ea95d4b	0.3307899
194	0xbd6d1e90	-0.057890475
195	0x3e926fc7	0.28600904
196	0xbe12779b	-0.14303438
197	0x3e72139e	0.23640296
198	0x3e3f1d36	0.18663487
199	0xbd11ef98	-0.035628885
200	0x3d400558	0.046880096
201	0x3e6418aa	0.22275034
202	0xbe1810ca	-0.14850155
203	0xbca166a0	-0.019702256
204	0x3e9e30f1	0.30896714
205	0xbe906e4e	-0.28209156
206	0x3d13a950	0.03605014
207	0xbea01712	-0.312676
208	0xbea59678	-0.3234136
209	0x3e230c02	0.1592255
210	0x3e0a61fe	0.13513944
211	0xbdc816dc	-0.09769985
212	0x3e6657da	0.2249445
213	0x3e69774a	0.22799411
214	0x3dc3c7dc	0.095596045
215	0xbdc39ee0	-0.095517874
216	0x3ca621d0	0.020279795
217	0xbd9b4200	-0.07580948
218	0x3e24f466	0.16108856
219	0xbdc74dc0	-0.097316265
220	0xbca303c0	-0.01989925
221	0xbe7621e3	-0.24036364
222	0x3e1f3b02	0.15549853
223	0x3e035956	0.12827048
224	0xbc573960	-0.013136238
225	0x3e3acb16	0.18241534
226	0xbe231404	-0.15925604
227	0xbe2f9fba	-0.17150775
228	0xbd33b800	-0.043876648
229	0x3e876ded	0.26451054
230	0xbdf175aa	-0.11790021
231	0x3d926794	0.07148662
232	0xbe692e76	-0.2277163
233	0xbe63a75d	-0.22231813
234	0xbe2098d0	-0.15683293
235	0xbddd1f58	-0.10796994
236	0xbea66a90	-0.32503176
237	0x3e5f9dd6	0.21837553
238	0xbd3acc58	-0.045605034
239	0x3c264b60	0.010149807
240	0x3ca091b0	0.01960072
241	0x3cb131e0	0.021630228
242	0x3e7a41a6	0.24439105
243	0x3eb158b5	0.3463799
244	0xbe7fda7e	-0.24985692
245	0x3e5e7da2	0.21727613
246	0x3e327962	0.17429116
247	0xbe90bb7c	-0.2826804
248	0x3eb0fe7f	0.34569165
249	0xbd2a3040	-0.04154992
250	0x3d83e784	0.064406425
251	0xbe8474e6	-0.25870436
252	0x3d172a50	0.036905587
253	0xbdc5334c	-0.09628925
254	0xbe26dc8d	-0.16295071
255	0xbe411222	-0.18854573

20 f4 [64, 64, 1, 34]
0	0x3c417418	0.011807464
1	0x3b912fc2	0.004430742
2	0x3a5f89bc	0.0008527299
3	0x3baac20b	0.00521112
4	0x3c2fd96c	0.01073299
5	0x3c186756	0.009301981
6	0x3c006d83	0.00783861
7	0x3b9d8383	0.004806937
8	0x3bb812b7	0.0056174654
9	0x3b292c75	0.0025813852
10	0x3ba3a199	0.004993629
11	0x3ba30a3c	0.0049755853
12	0x3b8e730c	0.0043472107
13	0x3b76a742	0.0037636315
14	0x3b94e2a1	0.004543618
15	0x3ba8684e	0.005139387
16	0x3bb3ee1d	0.005491032
17	0x3b9488a2	0.0045328895
18	0x3ba0b0a5	0.00490387
19	0x3ba7ed6b	0.005124738
20	0x3b98801b	0.0046539432
21	0x3bb3d803	0.005488397
22	0x3bb953b9	0.0056557325
23	0x3bb0afd1	0.0053920527
24	0x3bb10db3	0.0054032444
25	0x3baf783c	0.005354909
26	0x3bb2e100	0.005458951
27	0x3bb60cbd	0.0055557177
28	0x3bbc727a	0.0057509514
29	0x3bc42b38	0.0059865974
30	0x3bc653cc	0.00605247
31	0x3bc31727	0.0059536877
32	0x3bcb1ea1	0.0061987196
33	0x3bc68cab	0.0060592494
34	0x3c49da1f	0.0123200705
35	0x3b521b0c	0.0032059578
36	0xb98ebbb4	-0.000272242
37	0xbbac3a4f	-0.0052559744
38	0x3b07f93f	0.0020747927
39	0x3c83be69	0.016082006
40	0x3c52dea5	0.012870465
41	0xb955e4e3	-0.0002039853
42	0x3bd5ccda	0.0065246643
43	0xbbee8cf0	-0.0072799847
44	0xbb867dea	-0.0041043656
45	0xbb5e2b5a	-0.0033900351
46	0xbb55752e	-0.0032571065
47	0xbbf196e8	-0.0073727258
48	0xbba431e8	-0.005010832
49	0xbb1ab3cf	-0.002360571
50	0x3aaef87e	0.0013349203
51	0x39a007f0	0.00030523492
52	0xbaeb22e5	-0.0017939477
53	0xb9b310b8	-0.00034153997
54	0x38952b12	7.112896e-05
55	0x3b2af61a	0.002608663
56	0x3b561064	0.0032663578
57	0x3bb41e5b	0.0054967827
58	0x3b9ff912	0.0048819864
59	0x3b63bfbd	0.0034751736
60	0x3b8c7a04	0.0042870063
61	0x3bb0c379	0.005394396
62	0x3bc99327	0.006151575
63	0x3b97f392	0.00463719
64	0x3b26a352	0.0025426936
65	0x3b78ed68	0.0037983302
66	0x3b82495e	0.003976031
67	0x3b650046	0.003494279
68	0xbc2818b1	-0.010259793
69	0x3c399469	0.011326888
70	0xbc773b73	-0.015089857
71	0xbabd2c5d	-0.0014432777
72	0xbc761e0c	-0.015021812
73	0x3c3b1bba	0.011420185
74	0x3cb29205	0.021798143
75	0xbc01c56d	-0.007920605
76	0x3a9e8254	0.0012093284
77	0xbb852b91	-0.0040640314
78	0xbc1096ef	-0.008825048
79	0xbc0e1911	-0.0086729685
80	0x3c0cc21a	0.008591199
81	0xbb800164	-0.003906416
82	0x3b36c103	0.002788604
83	0x3c13f922	0.009031566
84	0x3c03bd1b	0.008040692
85	0xba88be74	-0.0010432736
86	0x3c010bcc	0.007876348
87	0x3b49ee7a	0.003081231
88	0x3c1cdc98	0.009574078
89	0x3c3c1650	0.011479929
90	0x3bfba73b	0.0076798475
91	0x3c3b9b28	0.011450566
92	0x3be162e0	0.006878242
93	0x3c29823f	0.0103459945
94	0x3c149f1d	0.009071139
95	0x3c65f2c1	0.014034928
96	0x3c343212	0.010998266
97	0x3c35cad7	0.011095724
98	0x3c3fd41c	0.011708286
99	0x3c4f2f1f	0.012645512
100	0x3c498349	0.012299367
101	0x3c6459be	0.013937412
102	0xbc25d2bc	-0.010121044
103	0x3988d17d	0.00026096022
104	0xb9c1b6b2	-0.00036947947
105	0x3b58a623	0.003305801
106	0x3ae3f911	0.0017392953
107	0x3b68c148	0.0035515595
108	0x3b03542c	0.0020039184
109	0x3b0b4056	0.0021248064
110	0xba699485	-0.0008910376
111	0xb8a65cc3	-7.932775e-05
112	0x3add0efa	0.0016865425
113	0x3b4b7ca9	0.0031049645
114	0xb80d81dd	-3.3737964e-05
115	0x3a10b3e2	0.00055199687
116	0xb9ef8b3b	-0.00045689367
117	0xbac02a4c	-0.0014661043
118	0x3a2e228d	0.0006642722
119	0x3abbef89	0.0014338355
120	0x3b186047	0.0023250745
121	0xba686ed6	-0.00088666135
122	0x3a5d8c85	0.000845142
123	0x3a20a1c7	0.00061276223
124	0xb8bac450	-8.905737e-05
125	0x3a0bb4d2	0.00053293735
126	0x3a9f411d	0.0012150143
127	0xb995d4fc	-0.0002857818
128	0x3b624e32	0.0034531471
129	0x3a9651b5	0.0011468442
130	0xba26e158	-0.00063659763
131	0x3a1090e3	0.0005514754
132	0x3ae2249b	0.0017253341
133	0x39afe3a6	0.00033548212
134	0x3b2f7bd7	0.0026776695
135	0x3a9feb7e	0.001220092
136	0x3c289941	0.010290445
137	0x3c14904c	0.009067606
138	0xbc773622	-0.01508859
139	0xbb147e0c	-0.0022658138
140	0xbc16ea66	-0.009211158
141	0x3b174256	0.002308031
142	0xbc924d29	-0.017859058
143	0xbca37f2c	-0.019958101
144	0xbc859d15	-0.016310254
145	0xbc36e39a	-0.011162663
146	0xbc5ff228	-0.013668574
147	0xbc5b7bee	-0.013396246
148	0xbc862835	-0.016376594
149	0xbc552f03	-0.013011697
150	0xbc64edc5	-0.013972704
151	0xbc683abe	-0.0141741615
152	0xbc3a01e5	-0.011352991
153	0xbc05fd74	-0.008178104
154	0xbc16457f	-0.009171843
155	0xbc204674	-0.009782422
156	0xbc3b3246	-0.01142556
157	0xbc1f3581	-0.009717346
158	0xbc05b727	-0.008161343
159	0xbb6dde94	-0.0036295997
160	0xba26837e	-0.00063519913
161	0xba52c28b	-0.00080398534
162	0x39f07130	0.00045860698
163	0x3b543cfc	0.0032384982
164	0x3a0811f2	0.00051906623
165	0xbaa4503b	-0.0012536118
166	0xbad06772	-0.001589997
167	0x391a295f	0.00014701996
168	0x3a9feffb	0.0012202257
169	0x3ad8665f	0.0016510001
170	0x3cce53fe	0.025186535
171	0x3c8d310a	0.017235298
172	0x3b4e841c	0.0031511849
173	0x3beb250b	0.0071760467
174	0xbba45766	-0.0050153015
175	0x3b51716e	0.0031958479
176	0xbc91131e	-0.017709311
177	0xbcbf486f	-0.023349969
178	0xbc98567e	-0.01859593
179	0xbc4a24b7	-0.012337855
180	0xbc89a390	-0.016801625
181	0xbc741c85	-0.014899378
182	0xbc8807be	-0.016605254
183	0xbc64aa8b	-0.013956676
184	0xbc53999f	-0.012915044
185	0xbc60a80f	-0.013711943
186	0xbc38c560	-0.011277527
187	0xbc073c90	-0.008254185
188	0xbc13c2cd	-0.009018612
189	0xbc202c61	-0.009776206
190	0xbc3f1a8c	-0.011664044
191	0xbc242006	-0.010017401
192	0xbc0908b8	-0.008363895
193	0xbb7dabb8	-0.0038707089
194	0xba4ff3bd	-0.0007932743
195	0xba66b2bd	-0.0008800438
196	0x39a20349	0.00030901495
197	0x3b42b487	0.0029709653
198	0x391eff19	0.00015163085
199	0xbad44a31	-0.0016196427
200	0xbb00d9e5	-0.0019661125
201	0xb9a4278f	-0.0003130999
202	0x3a458377	0.00075345434
203	0x3aa3557f	0.0012461393
204	0xbc268c50	-0.010165289
205	0x3b9a032c	0.004700085
206	0xbd0cd8c3	-0.034386408
207	0xbc65cd3d	-0.014025983
208	0xbc5283a7	-0.012848771
209	0xbc0cada3	-0.00858632
210	0xba8c42dc	-0.0010701078
211	0xbc6ee312	-0.014580505
212	0xbb9430eb	-0.004522433
213	0xbc5292e8	-0.012852408
214	0xbc54e15f	-0.012993186
215	0xbc501bb7	-0.01270192
216	0xbc5c25d9	-0.013436758
217	0xbc63b436	-0.013897946
218	0xbc3f5349	-0.011677572
219	0xbc2442b1	-0.010025666
220	0xbbe04de6	-0.0068452237
221	0xbbc73ceb	-0.00608026
222	0xbc22d021	-0.009937317
223	0xbc065f30	-0.008201405
224	0xbc1430e0	-0.009044856
225	0xbbce2b8b	-0.006291812
226	0xbbabc3ed	-0.005241862
227	0xba341697	-0.0006869821
228	0xb933d891	-0.00017151448
229	0xbaa9adf0	-0.0012945514
230	0x38ab8fab	8.180676e-05
231	0x3b9944b2	0.0046773786
232	0x3b5ce254	0.0033704238
233	0x3b00007d	0.001953154
234	0x3a16b525	0.00057490385
235	0x3b5a4eff	0.0033311245
236	0x3b876e81	0.004133046
237	0x3b68a763	0.003550016
238	0x3b9f59a6	0.004862982
239	0x3ba1c2ef	0.004936568
240	0x3c065541	0.008199037
241	0x3c1e3d30	0.009658143
242	0x3c22450f	0.00990416
243	0x3c1b2d37	0.009471229
244	0x3c240046	0.010009831
245	0x3c20b2a8	0.00980822
246	0x3c1ae4aa	0.009453932
247	0x3c1c8704	0.009553675
248	0x3c1b16a5	0.009465848
249	0x3c1dda62	0.009634586
250	0x3c1d9531	0.00961809
251	0x3c1d7aeb	0.009611825
252	0x3c1a5f7c	0.009422179
253	0x3c1ce9e7	0.009577251
254	0x3c1c1ec5	0.00952882
255	0x3c1b95f1	0.009496198

21 f4 [64]
0	0xbca15cb7	-0.01969753
1	0x3d6ee15b	0.058320384
2	0x3d3a7d06	0.045529388
3	0xbd225087	-0.039627578
4	0x3c9c8ac3	0.019109135
5	0xbd828d7a	-0.06374641
6	0xbe01a124	-0.12659127
7	0xbda98460	-0.08277202
8	0x3ddb1b8a	0.10698612
9	0x3cce792f	0.02520427
10	0x3d793005	0.06083681
11	0x3cc4cd21	0.024023594
12	0x3d823ac6	0.063588664
13	0xbdb3acee	-0.08773218
14	0x3c884aad	0.01663717
15	0x3cbf44c4	0.02334822
16	0xbdd83943	-0.10557797
17	0xbd7badff	-0.061445232
18	0xbc8e93b7	-0.01740442
19	0xbd75f1f5	-0.0600452
20	0xbdd01daa	-0.10161908
21	0xbcfc95e0	-0.030833185
22	0xbd210e9b	-0.03932057
23	0x3ce3e712	0.027820144
24	0x3cb6f5d3	0.022334015
25	0x3cff6fb7	0.0311812
26	0x3d798609	0.06091884
27	0x3db8624f	0.09003126
28	0x3d22c798	0.03974113
29	0x3cbc0906	0.022953521
30	0x3d828396	0.06372754
31	0xbcf09dfd	-0.02937221
32	0x3d1b180a	0.037864722
33	0x3c2f7f60	0.010711521
34	0x3d195abc	0.037440047
35	0xbd6d0ac1	-0.057871584
36	0xbd4eafc4	-0.050460592
37	0x3c8505b2	0.016238067
38	0xbcf6fa4c	-0.030148648
39	0x3d8cfce3	0.06884172
40	0x3d669ed1	0.056303803
41	0xbc61032b	-0.013733665
42	0x3c2604b2	0.010132955
43	0xbba946c5	-0.005165907
44	0x3d60a2b6	0.054842673
45	0xbd22e14b	-0.039765637
46	0x3d82cf57	0.06387203
47	0x3d18fe9c	0.03735219
48	0x3df6621d	0.120304324
49	0x3ca7269d	0.020404154
50	0xbe0042bb	-0.12525456
51	0xbcd784a8	-0.026308373
52	0xbd7acb3d	-0.06122898
53	0x3cc35e1e	0.02384859
54	0xbb047667	-0.0020212175
55	0x3d300832	0.042976566
56	0x3df4fc19	0.11962146
57	0x3d84585d	0.064621665
58	0xbd916368	-0.07099038
59	0x3d64caf1	0.055857603
60	0x3c0264b5	0.007958581
61	0xbd4403c5	-0.047855157
62	0x3d3c2a33	0.04593868
63	0x3d9a6ff8	0.075408876
