modules/perception/production/data/perception/lidar/models/detection/point_pillars/pfe.onnx (onnx, 5706 bytes, 5 tensors)

pfn_layers.0.linear.weight f4 [64, 8]
00000000: 2acf 7b3c 1358 b03d 70f7 c53f 30f5 703f
00000010: 7527 2dc0 ae52 fe3d 3f6a 6fbf 7c46 2b40
00000020: aff4 8cbc a05f 203d fa07 6fbf 2817 00be
00000030: 3443 8a3d 4863 b0c0 be6e 883e 77ed d6bd
00000040: e939 b03d 45b0 19bf 0050 153e 3176 60bf
00000050: 2776 1cbf 003e 02be d643 693f e197 433f
00000060: 9850 26bf dd33 763e db1d 2dbe a55b 9c3e
00000070: 2fe8 803e b550 dabe 46aa a2be c602 b7be
00000080: ff83 f5bc e758 adbe 160d d93e bf58 9d3f
00000090: 9b0e 2fbf f4a4 b1bf 5f4e 983f baca 13bf
000000a0: effe e43c 0030 0e3e df06 25c0 6acd d13e
000000b0: 758c 0b3f 2298 6d3f f5d9 f2be 5e6e 0cbf
000000c0: 0d30 a5bd e6e3 91bd 33a7 cfbe fe85 3d3d
000000d0: a8fb 4c3e c87c dabc 2400 393e a665 6f3c
000000e0: 533a 2d3d c418 373f 02fb 37bf 404e 033d
000000f0: 787e 063f e644 ac3f 6ac1 5e3e 1d60 ebbf
00000100: 4938 793d 0c37 69bc e1ef cabe 827a 8c3e
00000110: 2829 61bf 8389 3bbf ced2 8e3f 83b8 a43f
00000120: 847c 11bd c576 e1bf e6f7 66bf 6623 3d3e
00000130: 1bce 81be 2994 dfbe 908f 793c c2f8 9c3e
00000140: 15f3 eebd aea5 85bd 7ec4 1d3f 9414 1dbf
00000150: 5df4 0cbf d155 53be 1a58 52bf 1d4d 03bf
00000160: 5195 3bbe 5e3f ca3e 7a93 873e 333e 06bd
00000170: 87d2 843c c241 c8be d64c 543e 49c2 51bd
00000180: 9696 a93c 9728 b9bf 9102 98bf 390f f3bc
00000190: f888 10bf ca9c 65bf 480a 7dbd 5614 073f
000001a0: e501 0abe ae4b 393d 1d56 193e 4d2b b4be
000001b0: 2987 89bb 57ef bebd ea8d d0be 8e19 84be
000001c0: 68b2 a3bd 10ca aebe cd2f 673f e031 debd
000001d0: e482 febe 6404 113f af28 df3d c90a 7dbf
000001e0: b314 34bd 9e0e dabf 7f1e 5abf 5fff 2b3f
000001f0: d4f5 0bbf 1ada 05be d842 d93e 354e 0a3f
00000200: 6a6a 2bbc 8dc4 9bbe 7dca db3e acc5 a0be
00000210: 049b a43f d00d 8c3f 0960 94bf 6701 bc3f
00000220: 6507 c03c c6c2 1bbe 52ee 57bf 970c 04be
00000230: 4143 5dbf 15ef b5bf 62db 793d 03ea b8bf
00000240: 591f 7abd 40af 2fbe 3af3 96bf 3fb7 17be
00000250: 66bb b53e 1756 183f 78f2 a1bf 4735 0c3f
00000260: ad58 30be 6e8a 143c 0a5b 433e 8d6b d83e
00000270: 00e8 55bd 6f14 28be 1b40 a23e e986 adbe
00000280: 1de2 50bd 6461 86bf 22e9 bebe 6238 863d
00000290: 2639 773c bc1e 31bf 37d5 febc 9ce9 63bc
000002a0: 095f b03d 8868 72be bd75 973e c072 2fbe
000002b0: f223 623d 5869 253d b836 013e 9824 23be
000002c0: e56b b8bd 2bf3 f5bd 94e1 713f 2f78 ef3c
000002d0: 2122 debd 1405 e73d be0f 203e 4dfc 3a3e
000002e0: 25f8 41bd 69d4 7f3f 0dec 24bf d115 9dbe
000002f0: 1c54 fdbc 23c5 193f dcd9 9f3e 0dd7 123c
00000300: 2e98 74be 90a8 28bd c003 e039 8f03 133e
00000310: 74e2 ea3d d556 b6bd 7983 09be cd2a c2bd
00000320: 3614 12be cfca d4bd a504 983d 038b 7ebe
00000330: e2ab 0e3e f414 bf3a 8c50 47bd eb6d 3b3e
00000340: 702f 093d c2c0 c33f 5bbd 1bbf 58ae dfbe
00000350: 2a48 4a3e b9b0 3f3f 80c0 c13e b926 99be
00000360: 06a0 f3bd 594c 06bf f79a 733e 1e0c 40be
00000370: 8286 cbbe 79c8 fdbe e3a0 37bf be93 e3bd
00000380: 655d 243c b5cc 163f 85ab 853f 548c dc3e
00000390: ecca 0f3e d260 a43f dd8f 4ebf d1ff 1cbe
000003a0: d83e e63b b9ca bebd 8b1e 71c0 2d1a 993e
000003b0: 1d0e 8c3e 5b83 28be ce6e f8be d4c5 8bbe
000003c0: 57c0 a6bd 022a 153d 5059 513e 3058 953d
000003d0: 36aa 363f e026 54bd 517e 973f 142c 4f3f
000003e0: ec11 d53a 9118 323e ee7d fb3e 3adb a03d
000003f0: 85bb d9bd cb67 3fbe 788a 97bd d7c6 2cbf
0.015369216 0.08610549 1.5466137 0.94124126 -2.7055333 0.12418114 -0.93521494 2.676177
-0.017206518 0.039153695 -0.93371546 -0.12508833 0.06751099 -5.5121193 0.2664699 -0.104945116
0.086047955 -0.6003459 0.14581299 -0.87680346 -0.61117786 -0.12718964 0.91119134 0.76403624
-0.64966726 0.24043222 -0.1690592 0.3053867 0.25177142 -0.426397 -0.31770533 -0.35744303
-0.029970167 -0.3385689 0.42392796 1.2292708 -0.6838166 -1.3878465 1.1898917 -0.5773121
0.027953593 0.13885498 -2.5785444 0.4097703 0.54511195 0.9281026 -0.47431913 -0.54855907
-0.080658056 -0.07123546 -0.4055725 0.046270363 0.20017874 -0.026670828 0.1806646 0.014611637
0.04229195 0.71522164 -0.7186738 0.032057047 0.52536726 1.3458526 0.21753469 -1.8388706
0.060844693 -0.014234316 -0.39636138 0.27437216 -0.87953424 -0.732567 1.1158082 1.2868809
-0.035519138 -1.761437 -0.90222013 0.18470535 -0.25352558 -0.43667725 0.015231982 0.30658537
-0.11667458 -0.065257415 0.6162795 -0.61359525 -0.5506037 -0.20638205 -0.8216568 -0.5128954
-0.18318678 0.3950147 0.26479703 -0.03277416 0.016213669 -0.3911267 0.20732436 -0.051210675
0.020701688 -1.4465512 -1.1875783 -0.029670345 -0.56459 -0.89692366 -0.061777383 0.52765405
-0.13477285 0.04523819 0.14974256 -0.35189286 -0.0041970205 -0.09322994 -0.40733272 -0.25800747
-0.07993013 -0.34138536 0.90307313 -0.10849357 -0.49709237 0.56647325 0.10896432 -0.9884458
-0.043965053 -1.7035711 -0.85202783 0.6718654 -0.5467198 -0.1307148 0.4243381 0.54025584
-0.010462383 -0.30423394 0.42927924 -0.31400812 1.2859807 1.0941715 -1.1591808 1.4687928
0.023441026 -0.15211019 -0.8434802 -0.12895428 -0.86430746 -1.4213587 0.061000235 -1.4446415
-0.06106505 -0.17156696 -1.1792977 -0.14815997 0.35494536 0.5950636 -1.265212 0.54768795
-0.17221327 0.009066207 0.19077697 0.42269555 -0.052223206 -0.16414045 0.31689534 -0.3389199
-0.05099689 -1.0498471 -0.3728724 0.06553723 0.015089309 -0.6918752 -0.031107528 -0.013910677
0.086118765 -0.23672688 0.29582015 -0.17133617 0.05521006 0.040383667 0.1261853 -0.15931928
-0.09004954 -0.12009271 0.9448483 0.029232113 -0.10846353 0.112802655 0.15631005 0.18260308
-0.04735579 0.9993349 -0.64422685 -0.30680707 -0.030923896 0.6006643 0.312209 0.008962405
-0.23886177 -0.04117638 0.00042727403 0.14356826 0.11468974 -0.08903281 -0.13429059 -0.0948082
-0.14265522 -0.10390245 0.07422761 -0.24857716 0.13932756 0.0014578388 -0.0486608 0.18303649
0.033492506 1.52932 -0.6083581 -0.436877 0.19754091 0.7487903 0.37842178 -0.29912356
-0.118957564 -0.5246025 0.23789583 -0.18754622 -0.3975106 -0.4956701 -0.7172987 -0.11112164
0.010032033 0.5890611 1.0442969 0.43075812 0.14042252 1.2842047 -0.8068827 -0.15331961
0.0070265345 -0.0931601 -3.7674892 0.29902783 0.27354518 -0.16456358 -0.48522037 -0.27299368
-0.08142155 0.036417015 0.20444226 0.07292211 0.7135347 -0.051794887 1.1835424 0.8092663
0.0016255951 0.17392184 0.49119514 0.07854314 -0.1063147 -0.18691938 -0.07399458 -0.67490906

pfn_layers.0.norm.bias f4 [64]
00000000: 0e9f 51bf af5e 96bd 7a77 0ebf b268 3bbe
00000010: 0a68 febe 80c7 9abd 2276 11be ab5f 7fbd
00000020: 8c4a 21bf af58 e1be 3a1e 19be 8b68 303d
00000030: 3904 83be 0a2b 29be 7b56 5fbe da65 18bf
00000040: e838 51bf 56b4 66bf 104f 54be 566b 39be
00000050: 97f6 8ebf 7603 fcbe ab31 30be 6c1e 53be
00000060: c16f 23be 16ec 0bbe 752d 89be c272 dcbe
00000070: 5a7a 75bd c99e 9ebe 5389 1ebe faf2 d9bc
00000080: f3f0 bbbe 7bba 81be cd96 40be 75c2 0a3c
00000090: 8e13 62be 9c08 54be dc1f f6be 6195 48be
000000a0: 9242 3dbf 22a0 1fbe f435 3dbe f364 38be
000000b0: 6f4a 77be 13ae 3d3e 1ac9 10bf 9ead 09bf
000000c0: 6710 79be 1a62 3bbe fa49 22be 50df 29be
000000d0: f881 f3be f071 eebd 084d 45be 80e6 f53d
000000e0: e5dd 983e 7266 2cbf c136 68bc 48f4 4fbf
000000f0: 714e 573d 640c 50be a39c cfbd 27ae 7fbe
-0.81883323 -0.07342278 -0.55651057 -0.18301657 -0.4968875 -0.07557583 -0.1420522 -0.062347095
-0.63004375 -0.44012973 -0.14952937 0.04306845 -0.2558916 -0.16520324 -0.21810333 -0.59530413
-0.8172746 -0.9011892 -0.20733285 -0.18107352 -1.1169003 -0.4922139 -0.17206447 -0.20617074
-0.159606 -0.13664278 -0.26792493 -0.43056303 -0.059931137 -0.30980518 -0.15482073 -0.026605118
-0.36707267 -0.25337586 -0.18807526 0.008469214 -0.22077772 -0.20706409 -0.48071182 -0.19588234
-0.73929703 -0.1558843 -0.18477613 -0.18007259 -0.24149488 0.18523435 -0.56556857 -0.53780544
-0.24322663 -0.18299142 -0.15848532 -0.16589093 -0.47560096 -0.116428256 -0.19267666 0.12006855
0.29856792 -0.6734382 -0.014173211 -0.8123212 0.052565042 -0.20317227 -0.10137298 -0.24968778

pfn_layers.0.norm.running_mean f4 [64]
00000000: 9b3d b73d 41cd c3bd ee66 bb3e 57df d9bf
00000010: cfff c63c 421f a6bd 2af3 51be 5606 c5bd
00000020: f1d0 0d3e f1ea 923e cb1b 80be 9510 0bbf
00000030: f27c ae3e 7edf afbe 0c98 a1bd a92b 823e
00000040: b353 863d 3ad6 663d 866f 2bbe 85d3 dabe
00000050: 16d8 d33d 5dd9 923e 27b5 1ebe bdb0 c5be
00000060: e199 17bf e1b3 a9be 82e9 9cbe 1850 28be
00000070: 5718 88bd 67b0 08be 4f58 51be 0cf0 6ebc
00000080: 3de4 713e 0870 0fbe fcc6 6cbf af28 653b
00000090: 6c1f f6bd d3c8 8cbe 2e4c c93e 9536 bfbe
000000a0: f3d1 ad3d b9a8 403e bddf 473e 5e49 f6bf
000000b0: fb2f 80be df5f 3bbe 263b 363d e556 d8bd
000000c0: 81eb 3b3e 6caa 3dbe bc90 48c0 9f14 20bf
000000d0: 2494 7e3e 1c87 88be 8f2b a6be 0584 85ba
000000e0: f448 6bbe fbb2 773d 2ebb 843c eb72 1cbc
000000f0: 7998 d7b9 3d3d 88be 9fe2 75bd f0c8 2dbe
0.08947297 -0.095606335 0.36601967 -1.7021283 0.0242919 -0.08111431 -0.20502916 -0.09620349
0.13849236 0.2869487 -0.25021204 -0.5432218 0.340797 -0.34350199 -0.07890329 0.25423935
0.06558933 0.056356646 -0.16741762 -0.42739502 0.103439495 0.2868146 -0.15498792 -0.38611403
-0.59219176 -0.3314505 -0.30646902 -0.16436803 -0.066452675 -0.13348542 -0.20443843 -0.014583599
0.23622222 -0.1400758 -0.92491126 0.0034966876 -0.12017712 -0.27496967 0.39315933 -0.3734633
0.0848731 0.18814363 0.19518943 -1.924114 -0.25036606 -0.1829829 0.044490002 -0.10563449
0.18351556 -0.18522042 -3.133834 -0.62531465 0.24861199 -0.2666558 -0.32455108 -0.001018644
-0.22977048 0.060473423 0.016202535 -0.009548883 -0.00041121597 -0.2660922 -0.060030576 -0.16971183

pfn_layers.0.norm.running_var f4 [64]
00000000: 0893 6a3d f148 aa3f c34c 273f 4122 9341
00000010: cbcb 573e 7c17 093e 07c3 973e 81b1 f23e
00000020: 35b2 283e 47a4 cc3f c8b3 023f f22e ce3f
00000030: 9797 9d3f b358 443f a789 783e 70d5 b93f
00000040: 0b7d b63d 7075 093e d744 6a3e bae0 9d3f
00000050: ee6f 2a3f 324f d73e 6cfc 893e 63fe 663f
00000060: dda1 1940 e6d7 533f b67e b33f 4ab0 213f
00000070: c58f 943e d055 113e aac6 8d3e 57d6 483c
00000080: 4d12 a33e ed85 9a3e b5fe a440 3034 d940
00000090: 4397 063e 5f82 f83e c32e 663f bff3 693f
000000a0: e443 913d a8f2 403e a224 443e 75f7 be41
000000b0: 2f38 673f 9a03 383e 7db2 da3c 5128 243e
000000c0: 9b21 4b3e cd5e 693e b0cd 8042 0644 2340
000000d0: bef6 973e 1e13 163f bf1c 683f 0403 d53e
000000e0: 4115 013f e2f4 d23c 60d4 c63d 4bd0 903e
000000f0: 3d70 d13d b0a4 1c3f 5897 5e3d 92e4 353e
0.057269126 1.330351 0.65351504 18.391726 0.21073835 0.13387865 0.29640982 0.4740105
0.1647423 1.5987633 0.51055574 1.6108077 1.2311887 0.76697844 0.2427126 1.4518261
0.08910569 0.13423705 0.22877823 1.2334206 0.6657704 0.4205261 0.26950395 0.90231913
2.4005044 0.8275131 1.4023044 0.6315962 0.29015937 0.14192891 0.2769063 0.012258134
0.318499 0.30180302 5.156092 6.7876205 0.1314364 0.48536965 0.899151 0.9138755
0.07093027 0.18842566 0.191546 23.870829 0.90320104 0.17970124 0.026696438 0.16031004
0.19837038 0.2279007 64.40173 2.5510268 0.29680437 0.5862292 0.90668863 0.41603863
0.50423056 0.025751535 0.09708476 0.28283915 0.10226486 0.61188793 0.05434355 0.17762974

pfn_layers.0.norm.weight f4 [64]
00000000: d0bb c53e 6e75 273f 70f0 893d 48a9 0b3f
00000010: 0a0a 543e 5d09 bf3e bc10 333e 4428 c23e
00000020: 9e07 323e df07 bd3e e8a8 983e 3363 9f3e
00000030: 140c f23e af92 3b3e 4fe4 d43e 2182 a53e
00000040: 1157 c13e b79e 0f3e e032 eb3e ee9a 423e
00000050: d1d4 d53e 2083 9a3c 8f67 cc3e 559d 1c3f
00000060: ab68 823e 47bd 2c3e f76e 333f f799 b43e
00000070: ef9b a03e 57d4 783f bde3 d43e 6cc7 c6b9
00000080: 5606 a23e 4296 e93e 2568 0b3f b47c 4c3f
00000090: c859 9a3e c613 623e 8ca6 9b3e 31f3 223e
000000a0: de6e 113e d412 153c ef40 193c 006d 0a3f
000000b0: 75e9 a53e 618a ca3e f0d5 a63e 8772 f53e
000000c0: 9411 8e3c f48c be3f 9411 f33e eac8 823e
000000d0: 2b5f 363e 3435 ae3d e4d9 3d3f 30ec d03e
000000e0: 14f8 ac3e ef60 9d3e cf6e 35ba f820 503e
000000f0: 1f67 693e 2d7e c33e fe6a c53e 2d17 f63e
0.38619852 0.6541356 0.06735313 0.5455518 0.20706955 0.3731183 0.17486852 0.37921345
0.17385718 0.36920068 0.29816365 0.3113037 0.4727484 0.18317674 0.41580436 0.32325843
0.3776174 0.14025389 0.45937252 0.19004413 0.4176393 0.018861353 0.3992276 0.6117757
0.2547048 0.16869079 0.70091194 0.35273716 0.31368968 0.97199005 0.4158 -0.00037914084
0.3164546 0.4562245 0.54455787 0.7987778 0.30146623 0.22077855 0.30400503 0.15913083
0.14202449 0.009098727 0.00935386 0.5407257 0.32404676 0.395587 0.32585096 0.4793894
0.017342366 1.4886765 0.4747435 0.2554391 0.17809741 0.085062414 0.741606 0.40805197
0.3378302 0.30738017 -0.0006921114 0.20325077 0.22793244 0.38182202 0.3855819 0.48064557
