modules/perception/production/data/perception/lidar/models/detection/point_pillars/pfe.onnx (onnx, 4125 bytes, 5 tensors)

16 f4 [9, 64]
00000000: 14c6 ca3c 1829 41be a73a 22bd 08d9 9e3b
00000010: 0db3 1f3e e4a1 24bd f900 45bd 7f11 043c
00000020: 21a2 3a3d 6e75 f7bd 6de4 9bbd 9f02 a63c
00000030: 02a8 453d 4768 2dbd 6c28 3abc 32f1 11bc
00000040: 4c2b 2e3c ea5c 70bd 8bc6 5e3d e7eb c2bd
00000050: 72b9 d03e 5602 69bd baef cdbd 7fc1 fbbc
00000060: 1b3b 7f3c 7497 213f 40ae 663d 7897 d6bd
00000070: 9155 90bd ce36 45bd c3dd 9d3c 7518 f3bd
00000080: 2595 99be 6021 babc 0ea3 813c aba5 a6bd
00000090: c604 ca3c 9c47 17bd 06a0 06be eebf 9f3d
000000a0: 92e4 bc3d 3187 77bd c8f2 22bb a537 153f
000000b0: 548d 55bd 3435 503c dd3f 79bd 6513 1e3c
000000c0: c2fa 2abb 1152 493c 840c d3bd 2901 cbbd
000000d0: 7f5c f6bd 3b33 2e3d 6162 bfbd 13cf 7b3c
000000e0: f325 0bbc 65f8 163d 4ba2 a73c 632a 11be
000000f0: 217d 8dbf 2f78 eb3b 3fe7 e0bc 7b26 e9bd
00000100: 3cd1 963d 0ce7 0abd b9ea b63f a001 11bc
00000110: 8555 103e db4d 183f 2aba 9dbe 3e8d 193e
00000120: 6acd 113f 9a27 50bd e25d 5cbd 2505 7ebe
00000130: a3ae 3f3f f853 2bbe 9db2 c73e 69d0 65bd
00000140: 6967 403d 6280 3ebe 543e 61bf e73d ba3d
00000150: c341 06be 60c1 04be 6965 37be 096f 433d
00000160: 0cdf d53e c478 debd a25b ccbd 766b 77be
00000170: 78c9 90be d81c 51bf 9ab4 2d3d 5c89 39be
00000180: 9726 6dbd eaaf 063f 0fe0 04bf 1800 323e
00000190: b6e9 c2bd 9e6e aebd 288e 183d 00f2 a6be
000001a0: b8bd 9a3c 9432 643e d45c 56bd 2caf 923c
000001b0: 64c0 233f 415c c3be cfa3 6cbf 9300 22bc
000001c0: 9797 fabd a198 c4bc 0af6 52bd e058 3dbe
000001d0: 839d 04be b466 b4bd 11ed ccbe eddb 543d
000001e0: ed17 31bc ecca 0fbf 6c6d a13c 0064 a3be
000001f0: f4b4 273e 9a11 0940 e6cf ccbf 6f5c 07be
00000200: 482f 47bf d16e b6bd 3c4f d53f a0de 433f
00000210: 3ff8 5d3f 1181 d73f df25 8bbf 7af6 5e40
00000220: 9e10 edbe 2604 143e 7b31 f53e 9bb1 10bd
00000230: 38dd 6f3f f6e7 2540 6266 833f 46ba 2dc0
00000240: eb59 bcbd 1764 a43f 1486 f83f 2082 2d3f
00000250: 5ccc 2ebd 9af1 ad3f 22b5 943f 90fb 413f
00000260: b98d 533f fd91 853e 7c1c aa3e c1f0 633e
00000270: 9af4 cdbe c5cd 3cbe 586c 56bf 8005 8a3d
00000280: 780b a23d 6eaa dd3f 649f b73e 2551 6e3e
00000290: 6b28 0940 eb47 733e 2032 cbbe bcb4 bf3e
000002a0: 88af d83e 930c d13e dd95 08bf fb77 383f
000002b0: 2a90 dabe 752f 1140 3673 a53d 13f3 e6c0
000002c0: 4a58 bbbe aaa4 c43f fca0 5e3f 127b bcbe
000002d0: 555b a0be 6637 db3e 2b3c 883e 0a75 8a3f
000002e0: c2ca 1741 cbe6 b33f 3e40 c3be c0a0 89be
000002f0: 0db8 37bf 60f0 0640 e229 0840 e2d6 5d3f
00000300: f099 92be ef2e ab3e f64d 79be 12e2 a8c0
00000310: d6ce 8c3d c562 203f 50c9 3f3f a0b3 10bf
00000320: 7c7b c53e abd1 203e 71a3 9f3f a5d4 b53d
00000330: ede3 d9bd 6abc 003f 4204 da3e 26a5 35bf
00000340: 41ea 1bc0 e549 42bf 426b 34bd 39c0 4bbe
00000350: 63d7 393f d9d6 863d 8c09 003f 7120 de3e
00000360: fe0c 03bf 7585 61bd a108 263e 7135 303f
00000370: ed6d 32bf e3f4 12be a7f0 44c0 3aca bfbe
00000380: b3f4 873d d8c2 d2bf 5fc9 69c0 c9c5 863e
00000390: 7054 4abf 3db1 cb3e 1794 2a3f 1de3 a53e
000003a0: 32d5 033f 8d7f 263f 9df6 853d 5dc6 05be
000003b0: 7d18 c43e d925 893f 5ed9 0e3e 85ae e2bd
000003c0: 7b9f 0cbf dd99 8c3f 5c81 aebe d6c8 1e3f
000003d0: 4bf1 a23e 0406 a23e acaa ea3e 0d51 5840
000003e0: 4890 2ab7 bc97 9fbe e97b c9bd 8808 123e
000003f0: 97c3 d03e 7f45 1dbf 0713 20bf 1047 25be
0.024752654 -0.18863332 -0.039606716 0.0048476495 0.15595646 -0.040193453 -0.04809663 0.008060812
0.045564774 -0.12082945 -0.07611928 0.020264922 0.048255928 -0.042335775 -0.011362176 -0.008907603
0.01063044 -0.05868236 0.054388564 -0.09517651 0.40766484 -0.056886993 -0.1005549 -0.030731915
0.015578057 0.63121724 0.05631852 -0.10478109 -0.070475705 -0.04814797 0.019270783 -0.11869899
-0.299966 -0.022720993 0.01582482 -0.081370674 0.02466048 -0.036933526 -0.13146982 0.078002796
0.09223284 -0.060431663 -0.0024863947 0.5828803 -0.052136734 0.012707997 -0.06085192 0.009648179
-0.0026089405 0.012287633 -0.103051215 -0.09912331 -0.12029361 0.042529326 -0.09344936 0.015369195
-0.0084929345 0.03685798 0.02046313 -0.14176326 -1.1053811 0.007185958 -0.027454017 -0.11384293
0.07364127 -0.03391175 1.4290382 -0.008850485 0.14095123 0.594938 -0.30806094 0.14995286
0.5695406 -0.050819017 -0.05380047 -0.2480665 0.7487585 -0.1673125 0.3900346 -0.05610696
0.04697362 -0.18603662 -0.8798573 0.09093838 -0.13111024 -0.12964392 -0.17909779 0.047713313
0.41771734 -0.10862878 -0.09978415 -0.24162087 -0.28278708 -0.8168464 0.042408563 -0.18118805
-0.05789813 0.52612174 -0.51904386 0.17382848 -0.09517233 -0.08517192 0.037244946 -0.32606506
0.018889293 0.22284919 -0.05233462 0.017905794 0.6396544 -0.38156322 -0.9243745 -0.009887832
-0.12235945 -0.02399856 -0.051504172 -0.18490934 -0.12950711 -0.088086516 -0.40024617 0.05196755
-0.010808927 -0.5616901 0.019705497 -0.3191223 0.16377622 2.1416993 -1.6000946 -0.13218854
-0.7780652 -0.08907855 1.6664805 0.76511574 0.8670692 1.6836263 -1.0870932 3.4837937
-0.4630174 0.14454708 0.47889313 -0.035325628 0.9369693 2.5922828 1.026562 -2.7144942
-0.09196838 1.2843045 1.9415917 0.6777668 -0.04267536 1.3589356 1.1617777 0.7577448
0.82638127 0.26087943 0.33224857 0.22259809 -0.4022568 -0.1843787 -0.8375907 0.0673933
0.07912344 1.7317636 0.35863793 0.23273142 2.143092 0.23757903 -0.3968668 0.37442577
0.4232142 0.40829906 -0.53353673 0.72058076 -0.42688113 2.2685215 0.08078615 -7.217172
-0.36590797 1.5362751 0.8696439 -0.36812645 -0.3131968 0.42815703 0.26608405 1.0816967
9.487001 1.4054807 -0.3813495 -0.26880455 -0.71765214 2.1084213 2.1275563 0.8665601
-0.2863307 0.33434245 -0.24346146 -5.2775965 0.06875388 0.6265071 0.74916553 -0.56524086
0.38570774 0.15704982 1.2471753 0.08878449 -0.106391765 0.502875 0.42581373 -0.7095512
-2.4361727 -0.75894004 -0.0440476 -0.19897546 0.7259428 0.06583948 0.5001457 0.43384126
-0.511917 -0.055058915 0.16214229 0.68831545 -0.69698983 -0.1435123 -3.0771883 -0.37458974
0.066384695 -1.6465712 -3.6529157 0.26322773 -0.7903509 0.3978366 0.6663222 0.32399836
0.51497185 0.6503838 0.065411784 -0.13063951 0.38299933 1.0714675 0.13950107 -0.11068443
-0.5493085 1.0984455 -0.34083068 0.620252 0.31824717 0.31645215 0.45833337 3.379947
-1.0166383e-05 -0.31170452 -0.09838087 0.14261067 0.40774223 -0.6143417 -0.62529033 -0.1614039

pfn_layers.0.norm.bias f4 [64]
00000000: 3c08 cabe bb57 44be e931 00bf 2f66 46bf
00000010: f1d2 33bf f943 99be 9174 51be 23a9 84bf
00000020: 8649 473a 0f4d 35be 5f1d 1abe 8f09 9cbe
00000030: c022 95bb bba8 16bd ae68 8abe d15e 37bd
00000040: 9465 34be 5762 bb3e c5d7 b0be 5e01 3fbe
00000050: 7e2a 0fbf 1543 64be 106d febd 9f87 1abe
00000060: 387c e5bc a281 2bbf 4bdf bebe bb85 98be
00000070: 0c08 823d 096b 4abf 17e1 64be 5e70 dbbd
00000080: 8fd0 17be fa1e b8be acf9 30be 26ff 29be
00000090: 7a17 21bf 3906 b6be 1103 11be dd4f aebe
000000a0: c80d 52bf 50cd 23be 6cf1 da3a 9cbb 31bf
000000b0: e79c 9abc 3af1 03bf 3296 a8bd 6f00 b1be
000000c0: 5d00 90bf 34d5 4dbf 3e56 1ebe 938b 0fbe
000000d0: de9b 16be 8543 00bf 0d58 8abe dcfa 51bf
000000e0: fc92 533e 8d2b 66be 4d44 9abe eaeb 48be
000000f0: 91f9 8a3d 2e99 45be b2ae 18bf 9396 01be
-0.39459407 -0.19174092 -0.50076157 -0.7749967 -0.70243746 -0.29934672 -0.20454623 -1.0364116
0.00076022034 -0.17705177 -0.15050267 -0.30476043 -0.0045512617 -0.036782008 -0.2703299 -0.04476816
-0.17616874 0.36598465 -0.3453962 -0.18652865 -0.5592421 -0.22291215 -0.12423146 -0.15090798
-0.028013334 -0.6699468 -0.37279734 -0.29789528 0.06349191 -0.7906957 -0.2235149 -0.10714792
-0.14825653 -0.35961133 -0.17282742 -0.16601238 -0.6292645 -0.35551623 -0.14161326 -0.34045306
-0.8205228 -0.15996289 0.0016704029 -0.69426894 -0.018873645 -0.5153996 -0.082317725 -0.34570643
-1.1250111 -0.8040345 -0.15462586 -0.14018087 -0.14707896 -0.50103027 -0.27020302 -0.82023406
0.20661539 -0.22477551 -0.30130234 -0.19621244 0.06785882 -0.19296715 -0.59641564 -0.12655096

pfn_layers.0.norm.running_mean f4 [64]
00000000: 9a33 b73c bc5f e4be 7a28 d0be 1e76 55be
00000010: a2db bc3e 2ebc 3bbe c2f2 ffbc 74bd c43b
00000020: bdb6 52bb e1ee 8ebe 0ea6 ecbd 3f4d df3d
00000030: 7c4b 25bd a488 4abc 90cb aabd 5448 9abd
00000040: 816a bdbd f87f f7bd cd31 b53e 1024 83be
00000050: 6000 893f 30e3 bbbd 0d65 30be 84a9 6dbd
00000060: 8388 88bd 8253 cb3f 8647 313e ac98 30be
00000070: a0bc 16be e5e7 5e3d ddc1 dcbd b9cf 89be
00000080: d0df 39bf 2a78 65be 5ea2 8eba 0b37 67be
00000090: 0953 993d 80b7 54bd 088d 9ebe 08eb 913e
000000a0: 8829 813e d394 29be 067b d23a 1eb6 b83f
000000b0: 0f5f 85be 404e 453e b794 803d 12d0 90bd
000000c0: cdc3 02bc d54c d43d 7498 7dbe 22fd 39be
000000d0: 5e9d 84be 2ad6 133e 1fcc f2bd 887d 413e
000000e0: f65f d13d 6228 623e ccd6 173d 94d6 8dbe
000000f0: 48fd 30c0 ecbd ebbe 90d7 933e 4878 7ebe
0.022363473 -0.4460429 -0.4065588 -0.2084584 0.36886317 -0.18333504 -0.031243686 0.00600403
-0.0032152378 -0.27916625 -0.1155511 0.109034054 -0.04035519 -0.012361679 -0.08339608 -0.07533327
-0.0924883 -0.12084955 0.35389557 -0.2561345 1.070324 -0.09174192 -0.17226048 -0.05802299
-0.066666625 1.588486 0.1731244 -0.1724574 -0.14720392 0.05442037 -0.10779164 -0.26916292
-0.72607136 -0.2240912 -0.001088213 -0.22579591 0.07486541 -0.05193281 -0.30966973 0.28499627
0.25226998 -0.16560678 0.0016058392 1.4430578 -0.26049086 0.19268131 0.06278365 -0.07070936
-0.007981253 0.10366217 -0.24765188 -0.18162969 -0.25901312 0.14437166 -0.11855339 0.18895543
0.10223381 0.22085717 0.03707008 -0.27702773 -2.765459 -0.46043336 0.288754 -0.24850571

pfn_layers.0.norm.running_var f4 [64]
00000000: 974d 9e3d 62a6 d13f 626d af3f 162d a03e
00000010: 0843 963f 09b0 653e d356 1d3e e9b5 fd3c
00000020: 71af 9c3e a452 2a3f 7a58 563e f91d e03d
00000030: c72d e23e 848b e03d 843b 933e a55e 7e3f
00000040: 70d0 a83d 01eb 393e fda5 3a3f 653e ed3e
00000050: 10c3 0541 895a 043e 70bc cd3e 1195 243d
00000060: 357c 383e 88a8 9941 aa3c 413e 1662 f23e
00000070: bbf5 913e fda2 cf3e 60f8 f33d 96f8 2e3f
00000080: 14ca 8740 1647 963e 6899 0f3e f622 ac3e
00000090: 7bbd b63d 9a40 523d 46a6 463f 4713 e23e
000000a0: 7f4a 023f 40f9 3a3e 6c6a b040 7a1f 8241
000000b0: 3e0f bf3e a881 873e 0451 f43e 8bb5 9d3d
000000c0: 0d41 ff3d 1478 813d 8d43 033f 207b d33e
000000d0: d733 273f a385 073e 999e c93e 2e44 663e
000000e0: af0b 0e3e f387 a23e e328 7d3d 244d 6d3f
000000f0: 3759 6a42 efe8 2740 e064 a83f 0643 173f
0.07729643 1.6378901 1.3705256 0.31284398 1.1739206 0.22430433 0.15365152 0.03097053
0.306026 0.6653235 0.20932189 0.10943217 0.4417555 0.109641105 0.28756344 0.99363166
0.08242881 0.18156053 0.7290953 0.46336666 8.360123 0.12925161 0.4018283 0.040181223
0.18016131 19.20729 0.18870798 0.4734046 0.2850779 0.40554038 0.11912608 0.6834806
4.2434177 0.2935111 0.14023364 0.33620423 0.08922859 0.05133114 0.77597463 0.44155332
0.5089492 0.18259144 5.512991 16.26537 0.37316316 0.26466107 0.4771806 0.07700642
0.12463579 0.06321731 0.5127495 0.41304874 0.65313476 0.13234572 0.39378813 0.22486946
0.13871644 0.31744346 0.06180657 0.9269583 58.587124 2.6235921 1.3155785 0.59086645

pfn_layers.0.norm.weight f4 [64]
00000000: 1e94 a43e 2ca7 383e 10b5 2f3f 202a fe3f
00000010: 2fac 853c af12 eb3e d3a0 f93e f679 6c3e
00000020: c9f8 073e 2a51 303e d70c 063f 19a8 843e
00000030: cc9c 943e 3dae b63e 308a b13e 08d5 f33e
00000040: ee5e ed3e 78bc 843e 73f8 663e 8f77 0c3f
00000050: b14b 653e 8e51 043f 9970 e13e 55fe 7f3b
00000060: da1b 273e badb 1b3e fae7 053a 8ac1 af3e
00000070: cb23 7b3d ee7b b03e 71f6 203f 450e 463d
00000080: 3b9a 353e e647 fd3e bf58 653e 97c3 df3e
00000090: f832 2d3e bfab b83d 2cc4 bf3e a368 883c
000000a0: ae0b d93d 1d36 c53e 6125 313f b940 ff3d
000000b0: a2c4 e93e 7a1c 2a3e 5250 1e3f 7990 913f
000000c0: 76c8 b43e 2f1f 923e 9600 e83e 9026 ca3e
000000d0: c7eb 8e3e 5918 973c 4397 0c3f 972f 003f
000000e0: 70ac 453f b6a4 803e 1ddb 983e de8d cd3e
000000f0: f5f3 6e3e 38a9 063f d7c4 b43e 7707 be3e
0.32144254 0.18032521 0.68635654 1.9856606 0.016317455 0.45912692 0.48755512 0.230934
0.13278498 0.17218462 0.5236334 0.25909498 0.29025877 0.35679808 0.3467574 0.47623467
0.46361488 0.2592504 0.22555713 0.5486993 0.22392155 0.5168694 0.44031218 0.0039061506
0.16319218 0.15220538 0.00051081146 0.34327346 0.06131343 0.3446955 0.6287604 0.048353452
0.17734616 0.49468917 0.22397135 0.4370391 0.16913974 0.09017133 0.37454355 0.016651457
0.10597931 0.38517848 0.6919766 0.12463517 0.4565783 0.16612425 0.6184131 1.1372215
0.3530919 0.28539416 0.45312947 0.39482546 0.2791426 0.018444227 0.5491831 0.50072616
0.77216244 0.25125664 0.2985467 0.401473 0.2333525 0.5260196 0.35306427 0.3711507
